…
I1007 22:55:07.163283 12931 net.cpp:339] The NetState phase (0) differed from the phase (1) specified by a rule in layer accuracy
I1007 22:55:07.163444 12931 net.cpp:50] Initializing net from parameters: 
name: "AlexNet"
state {
  phase: TRAIN
}
layer {
  name: "data"
  type: "Data"
  top: "data"
  top: "label"
  include {
    phase: TRAIN
  }
  transform_param {
    mirror: true
    crop_size: 227
    mean_file: "/home/ram21/caffe/caffe/data/ilsvrc12/imagenet_mean.binaryproto"
  }
  data_param {
    source: "/home/ram21/Fall2015/DeepLearning/HW2/VT-F15-ECE6504-HW2-1.0/2_finetuning-alexnet-wikiart-style/train_lmdb"
    batch_size: 256
    backend: LMDB
  }
}
layer {
  name: "conv1"
  type: "Convolution"
  bottom: "data"
  top: "conv1"
  param {
    lr_mult: 1
    decay_mult: 1
  }
  param {
    lr_mult: 2
    decay_mult: 0
  }
  convolution_param {
    num_output: 96
    kernel_size: 11
    stride: 4
    weight_filler {
      type: "gaussian"
      std: 0.01
    }
    bias_filler {
      type: "constant"
      value: 0
    }
  }
}
layer {
  name: "relu1"
  type: "ReLU"
  bottom: "conv1"
  top: "conv1"
}
layer {
  name: "norm1"
  type: "LRN"
  bottom: "conv1"
  top: "norm1"
  lrn_param {
    local_size: 5
    alpha: 0.0001
    beta: 0.75
  }
}
layer {
  name: "pool1"
  type: "Pooling"
  bottom: "norm1"
  top: "pool1"
  pooling_param {
    pool: MAX
    kernel_size: 3
    stride: 2
  }
}
layer {
  name: "conv2"
  type: "Convolution"
  bottom: "pool1"
  top: "conv2"
  param {
    lr_mult: 1
    decay_mult: 1
  }
  param {
    lr_mult: 2
    decay_mult: 0
  }
  convolution_param {
    num_output: 256
    pad: 2
    kernel_size: 5
    group: 2
    weight_filler {
      type: "gaussian"
      std: 0.01
    }
    bias_filler {
      type: "constant"
      value: 0.1
    }
  }
}
layer {
  name: "relu2"
  type: "ReLU"
  bottom: "conv2"
  top: "conv2"
}
layer {
  name: "norm2"
  type: "LRN"
  bottom: "conv2"
  top: "norm2"
  lrn_param {
    local_size: 5
    alpha: 0.0001
    beta: 0.75
  }
}
layer {
  name: "pool2"
  type: "Pooling"
  bottom: "norm2"
  top: "pool2"
  pooling_param {
    pool: MAX
    kernel_size: 3
    stride: 2
  }
}
layer {
  name: "conv3"
  type: "Convolution"
  bottom: "pool2"
  top: "conv3"
  param {
    lr_mult: 1
    decay_mult: 1
  }
  param {
    lr_mult: 2
    decay_mult: 0
  }
  convolution_param {
    num_output: 384
    pad: 1
    kernel_size: 3
    weight_filler {
      type: "gaussian"
      std: 0.01
    }
    bias_filler {
      type: "constant"
      value: 0
    }
  }
}
layer {
  name: "relu3"
  type: "ReLU"
  bottom: "conv3"
  top: "conv3"
}
layer {
  name: "conv4"
  type: "Convolution"
  bottom: "conv3"
  top: "conv4"
  param {
    lr_mult: 1
    decay_mult: 1
  }
  param {
    lr_mult: 2
    decay_mult: 0
  }
  convolution_param {
    num_output: 384
    pad: 1
    kernel_size: 3
    group: 2
    weight_filler {
      type: "gaussian"
      std: 0.01
    }
    bias_filler {
      type: "constant"
      value: 0.1
    }
  }
}
layer {
  name: "relu4"
  type: "ReLU"
  bottom: "conv4"
  top: "conv4"
}
layer {
  name: "conv5"
  type: "Convolution"
  bottom: "conv4"
  top: "conv5"
  param {
    lr_mult: 1
    decay_mult: 1
  }
  param {
    lr_mult: 2
    decay_mult: 0
  }
  convolution_param {
    num_output: 256
    pad: 1
    kernel_size: 3
    group: 2
    weight_filler {
      type: "gaussian"
      std: 0.01
    }
    bias_filler {
      type: "constant"
      value: 0.1
    }
  }
}
layer {
  name: "relu5"
  type: "ReLU"
  bottom: "conv5"
  top: "conv5"
}
layer {
  name: "pool5"
  type: "Pooling"
  bottom: "conv5"
  top: "pool5"
  pooling_param {
    pool: MAX
    kernel_size: 3
    stride: 2
  }
}
layer {
  name: "fc6"
  type: "InnerProduct"
  bottom: "pool5"
  top: "fc6"
  param {
    lr_mult: 1
    decay_mult: 1
  }
  param {
    lr_mult: 2
    decay_mult: 0
  }
  inner_product_param {
    num_output: 4096
    weight_filler {
      type: "gaussian"
      std: 0.005
    }
    bias_filler {
      type: "constant"
      value: 0.1
    }
  }
}
layer {
  name: "relu6"
  type: "ReLU"
  bottom: "fc6"
  top: "fc6"
}
layer {
  name: "drop6"
  type: "Dropout"
  bottom: "fc6"
  top: "fc6"
  dropout_param {
    dropout_ratio: 0.5
  }
}
layer {
  name: "fc7"
  type: "InnerProduct"
  bottom: "fc6"
  top: "fc7"
  param {
    lr_mult: 1
    decay_mult: 1
  }
  param {
    lr_mult: 2
    decay_mult: 0
  }
  inner_product_param {
    num_output: 4096
    weight_filler {
      type: "gaussian"
      std: 0.005
    }
    bias_filler {
      type: "constant"
      value: 0.1
    }
  }
}
layer {
  name: "relu7"
  type: "ReLU"
  bottom: "fc7"
  top: "fc7"
}
layer {
  name: "drop7"
  type: "Dropout"
  bottom: "fc7"
  top: "fc7"
  dropout_param {
    dropout_ratio: 0.5
  }
}
layer {
  name: "fc8_finetune"
  type: "InnerProduct"
  bottom: "fc7"
  top: "fc8_finetune"
  param {
    lr_mult: 1000
    decay_mult: 1
  }
  param {
    lr_mult: 1000
    decay_mult: 0
  }
  inner_product_param {
    num_output: 10
    weight_filler {
      type: "gaussian"
      std: 0.01
    }
    bias_filler {
      type: "constant"
      value: 0
    }
  }
}
layer {
  name: "loss"
  type: "SoftmaxWithLoss"
  bottom: "fc8_finetune"
  bottom: "label"
  top: "loss"
}
I1007 22:55:07.163588 12931 layer_factory.hpp:76] Creating layer data
I1007 22:55:07.164187 12931 net.cpp:110] Creating Layer data
I1007 22:55:07.164232 12931 net.cpp:433] data -> data
I1007 22:55:07.164273 12931 net.cpp:433] data -> label
I1007 22:55:07.164299 12931 data_transformer.cpp:25] Loading mean file from: /home/ram21/caffe/caffe/data/ilsvrc12/imagenet_mean.binaryproto
I1007 22:55:07.166169 12935 db_lmdb.cpp:23] Opened lmdb /home/ram21/Fall2015/DeepLearning/HW2/VT-F15-ECE6504-HW2-1.0/2_finetuning-alexnet-wikiart-style/train_lmdb
I1007 22:55:07.179930 12931 data_layer.cpp:45] output data size: 256,3,227,227
I1007 22:55:07.395392 12931 net.cpp:155] Setting up data
I1007 22:55:07.395443 12931 net.cpp:163] Top shape: 256 3 227 227 (39574272)
I1007 22:55:07.395455 12931 net.cpp:163] Top shape: 256 (256)
I1007 22:55:07.395467 12931 layer_factory.hpp:76] Creating layer conv1
I1007 22:55:07.395488 12931 net.cpp:110] Creating Layer conv1
I1007 22:55:07.395498 12931 net.cpp:477] conv1 <- data
I1007 22:55:07.395516 12931 net.cpp:433] conv1 -> conv1
I1007 22:55:07.421461 12931 net.cpp:155] Setting up conv1
I1007 22:55:07.421516 12931 net.cpp:163] Top shape: 256 96 55 55 (74342400)
I1007 22:55:07.421542 12931 layer_factory.hpp:76] Creating layer relu1
I1007 22:55:07.421562 12931 net.cpp:110] Creating Layer relu1
I1007 22:55:07.421573 12931 net.cpp:477] relu1 <- conv1
I1007 22:55:07.421586 12931 net.cpp:419] relu1 -> conv1 (in-place)
I1007 22:55:07.421604 12931 net.cpp:155] Setting up relu1
I1007 22:55:07.421617 12931 net.cpp:163] Top shape: 256 96 55 55 (74342400)
I1007 22:55:07.421627 12931 layer_factory.hpp:76] Creating layer norm1
I1007 22:55:07.421641 12931 net.cpp:110] Creating Layer norm1
I1007 22:55:07.421650 12931 net.cpp:477] norm1 <- conv1
I1007 22:55:07.421661 12931 net.cpp:433] norm1 -> norm1
I1007 22:55:07.421712 12931 net.cpp:155] Setting up norm1
I1007 22:55:07.421727 12931 net.cpp:163] Top shape: 256 96 55 55 (74342400)
I1007 22:55:07.421737 12931 layer_factory.hpp:76] Creating layer pool1
I1007 22:55:07.421751 12931 net.cpp:110] Creating Layer pool1
I1007 22:55:07.421761 12931 net.cpp:477] pool1 <- norm1
I1007 22:55:07.421772 12931 net.cpp:433] pool1 -> pool1
I1007 22:55:07.421823 12931 net.cpp:155] Setting up pool1
I1007 22:55:07.421838 12931 net.cpp:163] Top shape: 256 96 27 27 (17915904)
I1007 22:55:07.421854 12931 layer_factory.hpp:76] Creating layer conv2
I1007 22:55:07.421895 12931 net.cpp:110] Creating Layer conv2
I1007 22:55:07.421905 12931 net.cpp:477] conv2 <- pool1
I1007 22:55:07.421917 12931 net.cpp:433] conv2 -> conv2
I1007 22:55:07.437152 12931 net.cpp:155] Setting up conv2
I1007 22:55:07.437208 12931 net.cpp:163] Top shape: 256 256 27 27 (47775744)
I1007 22:55:07.437232 12931 layer_factory.hpp:76] Creating layer relu2
I1007 22:55:07.437247 12931 net.cpp:110] Creating Layer relu2
I1007 22:55:07.437258 12931 net.cpp:477] relu2 <- conv2
I1007 22:55:07.437271 12931 net.cpp:419] relu2 -> conv2 (in-place)
I1007 22:55:07.437288 12931 net.cpp:155] Setting up relu2
I1007 22:55:07.437300 12931 net.cpp:163] Top shape: 256 256 27 27 (47775744)
I1007 22:55:07.437309 12931 layer_factory.hpp:76] Creating layer norm2
I1007 22:55:07.437322 12931 net.cpp:110] Creating Layer norm2
I1007 22:55:07.437332 12931 net.cpp:477] norm2 <- conv2
I1007 22:55:07.437345 12931 net.cpp:433] norm2 -> norm2
I1007 22:55:07.437387 12931 net.cpp:155] Setting up norm2
I1007 22:55:07.437402 12931 net.cpp:163] Top shape: 256 256 27 27 (47775744)
I1007 22:55:07.437410 12931 layer_factory.hpp:76] Creating layer pool2
I1007 22:55:07.437425 12931 net.cpp:110] Creating Layer pool2
I1007 22:55:07.437435 12931 net.cpp:477] pool2 <- norm2
I1007 22:55:07.437445 12931 net.cpp:433] pool2 -> pool2
I1007 22:55:07.437485 12931 net.cpp:155] Setting up pool2
I1007 22:55:07.437499 12931 net.cpp:163] Top shape: 256 256 13 13 (11075584)
I1007 22:55:07.437508 12931 layer_factory.hpp:76] Creating layer conv3
I1007 22:55:07.437523 12931 net.cpp:110] Creating Layer conv3
I1007 22:55:07.437532 12931 net.cpp:477] conv3 <- pool2
I1007 22:55:07.437544 12931 net.cpp:433] conv3 -> conv3
I1007 22:55:07.480453 12931 net.cpp:155] Setting up conv3
I1007 22:55:07.480506 12931 net.cpp:163] Top shape: 256 384 13 13 (16613376)
I1007 22:55:07.480532 12931 layer_factory.hpp:76] Creating layer relu3
I1007 22:55:07.480551 12931 net.cpp:110] Creating Layer relu3
I1007 22:55:07.480561 12931 net.cpp:477] relu3 <- conv3
I1007 22:55:07.480574 12931 net.cpp:419] relu3 -> conv3 (in-place)
I1007 22:55:07.480592 12931 net.cpp:155] Setting up relu3
I1007 22:55:07.480604 12931 net.cpp:163] Top shape: 256 384 13 13 (16613376)
I1007 22:55:07.480614 12931 layer_factory.hpp:76] Creating layer conv4
I1007 22:55:07.480630 12931 net.cpp:110] Creating Layer conv4
I1007 22:55:07.480640 12931 net.cpp:477] conv4 <- conv3
I1007 22:55:07.480653 12931 net.cpp:433] conv4 -> conv4
I1007 22:55:07.511346 12931 net.cpp:155] Setting up conv4
I1007 22:55:07.511399 12931 net.cpp:163] Top shape: 256 384 13 13 (16613376)
I1007 22:55:07.511416 12931 layer_factory.hpp:76] Creating layer relu4
I1007 22:55:07.511433 12931 net.cpp:110] Creating Layer relu4
I1007 22:55:07.511445 12931 net.cpp:477] relu4 <- conv4
I1007 22:55:07.511457 12931 net.cpp:419] relu4 -> conv4 (in-place)
I1007 22:55:07.511473 12931 net.cpp:155] Setting up relu4
I1007 22:55:07.511486 12931 net.cpp:163] Top shape: 256 384 13 13 (16613376)
I1007 22:55:07.511495 12931 layer_factory.hpp:76] Creating layer conv5
I1007 22:55:07.511510 12931 net.cpp:110] Creating Layer conv5
I1007 22:55:07.511520 12931 net.cpp:477] conv5 <- conv4
I1007 22:55:07.511533 12931 net.cpp:433] conv5 -> conv5
I1007 22:55:07.532106 12931 net.cpp:155] Setting up conv5
I1007 22:55:07.532157 12931 net.cpp:163] Top shape: 256 256 13 13 (11075584)
I1007 22:55:07.532182 12931 layer_factory.hpp:76] Creating layer relu5
I1007 22:55:07.532198 12931 net.cpp:110] Creating Layer relu5
I1007 22:55:07.532210 12931 net.cpp:477] relu5 <- conv5
I1007 22:55:07.532223 12931 net.cpp:419] relu5 -> conv5 (in-place)
I1007 22:55:07.532240 12931 net.cpp:155] Setting up relu5
I1007 22:55:07.532253 12931 net.cpp:163] Top shape: 256 256 13 13 (11075584)
I1007 22:55:07.532261 12931 layer_factory.hpp:76] Creating layer pool5
I1007 22:55:07.532274 12931 net.cpp:110] Creating Layer pool5
I1007 22:55:07.532284 12931 net.cpp:477] pool5 <- conv5
I1007 22:55:07.532295 12931 net.cpp:433] pool5 -> pool5
I1007 22:55:07.532348 12931 net.cpp:155] Setting up pool5
I1007 22:55:07.532387 12931 net.cpp:163] Top shape: 256 256 6 6 (2359296)
I1007 22:55:07.532397 12931 layer_factory.hpp:76] Creating layer fc6
I1007 22:55:07.532420 12931 net.cpp:110] Creating Layer fc6
I1007 22:55:07.532430 12931 net.cpp:477] fc6 <- pool5
I1007 22:55:07.532443 12931 net.cpp:433] fc6 -> fc6
I1007 22:55:08.767062 12931 net.cpp:155] Setting up fc6
I1007 22:55:08.767088 12931 net.cpp:163] Top shape: 256 4096 (1048576)
I1007 22:55:08.767099 12931 layer_factory.hpp:76] Creating layer relu6
I1007 22:55:08.767112 12931 net.cpp:110] Creating Layer relu6
I1007 22:55:08.767117 12931 net.cpp:477] relu6 <- fc6
I1007 22:55:08.767125 12931 net.cpp:419] relu6 -> fc6 (in-place)
I1007 22:55:08.767137 12931 net.cpp:155] Setting up relu6
I1007 22:55:08.767141 12931 net.cpp:163] Top shape: 256 4096 (1048576)
I1007 22:55:08.767146 12931 layer_factory.hpp:76] Creating layer drop6
I1007 22:55:08.767154 12931 net.cpp:110] Creating Layer drop6
I1007 22:55:08.767158 12931 net.cpp:477] drop6 <- fc6
I1007 22:55:08.767168 12931 net.cpp:419] drop6 -> fc6 (in-place)
I1007 22:55:08.767194 12931 net.cpp:155] Setting up drop6
I1007 22:55:08.767200 12931 net.cpp:163] Top shape: 256 4096 (1048576)
I1007 22:55:08.767205 12931 layer_factory.hpp:76] Creating layer fc7
I1007 22:55:08.767215 12931 net.cpp:110] Creating Layer fc7
I1007 22:55:08.767218 12931 net.cpp:477] fc7 <- fc6
I1007 22:55:08.767226 12931 net.cpp:433] fc7 -> fc7
I1007 22:55:09.485700 12931 net.cpp:155] Setting up fc7
I1007 22:55:09.485733 12931 net.cpp:163] Top shape: 256 4096 (1048576)
I1007 22:55:09.485743 12931 layer_factory.hpp:76] Creating layer relu7
I1007 22:55:09.485751 12931 net.cpp:110] Creating Layer relu7
I1007 22:55:09.485755 12931 net.cpp:477] relu7 <- fc7
I1007 22:55:09.485764 12931 net.cpp:419] relu7 -> fc7 (in-place)
I1007 22:55:09.485775 12931 net.cpp:155] Setting up relu7
I1007 22:55:09.485782 12931 net.cpp:163] Top shape: 256 4096 (1048576)
I1007 22:55:09.485787 12931 layer_factory.hpp:76] Creating layer drop7
I1007 22:55:09.485796 12931 net.cpp:110] Creating Layer drop7
I1007 22:55:09.485801 12931 net.cpp:477] drop7 <- fc7
I1007 22:55:09.485807 12931 net.cpp:419] drop7 -> fc7 (in-place)
I1007 22:55:09.485827 12931 net.cpp:155] Setting up drop7
I1007 22:55:09.485834 12931 net.cpp:163] Top shape: 256 4096 (1048576)
I1007 22:55:09.485839 12931 layer_factory.hpp:76] Creating layer fc8_finetune
I1007 22:55:09.485849 12931 net.cpp:110] Creating Layer fc8_finetune
I1007 22:55:09.485853 12931 net.cpp:477] fc8_finetune <- fc7
I1007 22:55:09.485860 12931 net.cpp:433] fc8_finetune -> fc8_finetune
I1007 22:55:09.487738 12931 net.cpp:155] Setting up fc8_finetune
I1007 22:55:09.487758 12931 net.cpp:163] Top shape: 256 10 (2560)
I1007 22:55:09.487766 12931 layer_factory.hpp:76] Creating layer loss
I1007 22:55:09.487773 12931 net.cpp:110] Creating Layer loss
I1007 22:55:09.487778 12931 net.cpp:477] loss <- fc8_finetune
I1007 22:55:09.487784 12931 net.cpp:477] loss <- label
I1007 22:55:09.487792 12931 net.cpp:433] loss -> loss
I1007 22:55:09.487808 12931 layer_factory.hpp:76] Creating layer loss
I1007 22:55:09.487879 12931 net.cpp:155] Setting up loss
…
I1007 22:55:09.488989 12931 net.cpp:339] The NetState phase (1) differed from the phase (0) specified by a rule in layer data
I1007 22:55:09.489222 12931 net.cpp:50] Initializing net from parameters: 
name: "AlexNet"
state {
  phase: TEST
}
layer {
  name: "data"
  type: "Data"
  top: "data"
  top: "label"
  include {
    phase: TEST
  }
  transform_param {
    mirror: false
    crop_size: 227
    mean_file: "/home/ram21/caffe/caffe/data/ilsvrc12/imagenet_mean.binaryproto"
  }
  data_param {
    source: "/home/ram21/Fall2015/DeepLearning/HW2/VT-F15-ECE6504-HW2-1.0/2_finetuning-alexnet-wikiart-style/test_lmdb"
    batch_size: 50
    backend: LMDB
  }
}
layer {
  name: "conv1"
  type: "Convolution"
  bottom: "data"
  top: "conv1"
  param {
    lr_mult: 1
    decay_mult: 1
  }
  param {
    lr_mult: 2
    decay_mult: 0
  }
  convolution_param {
    num_output: 96
    kernel_size: 11
    stride: 4
    weight_filler {
      type: "gaussian"
      std: 0.01
    }
    bias_filler {
      type: "constant"
      value: 0
    }
  }
}
layer {
  name: "relu1"
  type: "ReLU"
  bottom: "conv1"
  top: "conv1"
}
layer {
  name: "norm1"
  type: "LRN"
  bottom: "conv1"
  top: "norm1"
  lrn_param {
    local_size: 5
    alpha: 0.0001
    beta: 0.75
  }
}
layer {
  name: "pool1"
  type: "Pooling"
  bottom: "norm1"
  top: "pool1"
  pooling_param {
    pool: MAX
    kernel_size: 3
    stride: 2
  }
}
layer {
  name: "conv2"
  type: "Convolution"
  bottom: "pool1"
  top: "conv2"
  param {
    lr_mult: 1
    decay_mult: 1
  }
  param {
    lr_mult: 2
    decay_mult: 0
  }
  convolution_param {
    num_output: 256
    pad: 2
    kernel_size: 5
    group: 2
    weight_filler {
      type: "gaussian"
      std: 0.01
    }
    bias_filler {
      type: "constant"
      value: 0.1
    }
  }
}
layer {
  name: "relu2"
  type: "ReLU"
  bottom: "conv2"
  top: "conv2"
}
layer {
  name: "norm2"
  type: "LRN"
  bottom: "conv2"
  top: "norm2"
  lrn_param {
    local_size: 5
    alpha: 0.0001
    beta: 0.75
  }
}
layer {
  name: "pool2"
  type: "Pooling"
  bottom: "norm2"
  top: "pool2"
  pooling_param {
    pool: MAX
    kernel_size: 3
    stride: 2
  }
}
layer {
  name: "conv3"
  type: "Convolution"
  bottom: "pool2"
  top: "conv3"
  param {
    lr_mult: 1
    decay_mult: 1
  }
  param {
    lr_mult: 2
    decay_mult: 0
  }
  convolution_param {
    num_output: 384
    pad: 1
    kernel_size: 3
    weight_filler {
      type: "gaussian"
      std: 0.01
    }
    bias_filler {
      type: "constant"
      value: 0
    }
  }
}
layer {
  name: "relu3"
  type: "ReLU"
  bottom: "conv3"
  top: "conv3"
}
layer {
  name: "conv4"
  type: "Convolution"
  bottom: "conv3"
  top: "conv4"
  param {
    lr_mult: 1
    decay_mult: 1
  }
  param {
    lr_mult: 2
    decay_mult: 0
  }
  convolution_param {
    num_output: 384
    pad: 1
    kernel_size: 3
    group: 2
    weight_filler {
      type: "gaussian"
      std: 0.01
    }
    bias_filler {
      type: "constant"
      value: 0.1
    }
  }
}
layer {
  name: "relu4"
  type: "ReLU"
  bottom: "conv4"
  top: "conv4"
}
layer {
  name: "conv5"
  type: "Convolution"
  bottom: "conv4"
  top: "conv5"
  param {
    lr_mult: 1
    decay_mult: 1
  }
  param {
    lr_mult: 2
    decay_mult: 0
  }
  convolution_param {
    num_output: 256
    pad: 1
    kernel_size: 3
    group: 2
    weight_filler {
      type: "gaussian"
      std: 0.01
    }
    bias_filler {
      type: "constant"
      value: 0.1
    }
  }
}
layer {
  name: "relu5"
  type: "ReLU"
  bottom: "conv5"
  top: "conv5"
}
layer {
  name: "pool5"
  type: "Pooling"
  bottom: "conv5"
  top: "pool5"
  pooling_param {
    pool: MAX
    kernel_size: 3
    stride: 2
  }
}
layer {
  name: "fc6"
  type: "InnerProduct"
  bottom: "pool5"
  top: "fc6"
  param {
    lr_mult: 1
    decay_mult: 1
  }
  param {
    lr_mult: 2
    decay_mult: 0
  }
  inner_product_param {
    num_output: 4096
    weight_filler {
      type: "gaussian"
      std: 0.005
    }
    bias_filler {
      type: "constant"
      value: 0.1
    }
  }
}
layer {
  name: "relu6"
  type: "ReLU"
  bottom: "fc6"
  top: "fc6"
}
layer {
  name: "drop6"
  type: "Dropout"
  bottom: "fc6"
  top: "fc6"
  dropout_param {
    dropout_ratio: 0.5
  }
}
layer {
  name: "fc7"
  type: "InnerProduct"
  bottom: "fc6"
  top: "fc7"
  param {
    lr_mult: 1
    decay_mult: 1
  }
  param {
    lr_mult: 2
    decay_mult: 0
  }
  inner_product_param {
    num_output: 4096
    weight_filler {
      type: "gaussian"
      std: 0.005
    }
    bias_filler {
      type: "constant"
      value: 0.1
    }
  }
}
layer {
  name: "relu7"
  type: "ReLU"
  bottom: "fc7"
  top: "fc7"
}
layer {
  name: "drop7"
  type: "Dropout"
  bottom: "fc7"
  top: "fc7"
  dropout_param {
    dropout_ratio: 0.5
  }
}
layer {
  name: "fc8_finetune"
  type: "InnerProduct"
  bottom: "fc7"
  top: "fc8_finetune"
  param {
    lr_mult: 1000
    decay_mult: 1
  }
  param {
    lr_mult: 1000
    decay_mult: 0
  }
  inner_product_param {
    num_output: 10
    weight_filler {
      type: "gaussian"
      std: 0.01
    }
    bias_filler {
      type: "constant"
      value: 0
    }
  }
}
layer {
  name: "accuracy"
  type: "Accuracy"
  bottom: "fc8_finetune"
  bottom: "label"
  top: "accuracy"
  include {
    phase: TEST
  }
}
layer {
  name: "loss"
  type: "SoftmaxWithLoss"
  bottom: "fc8_finetune"
  bottom: "label"
  top: "loss"
}
I1007 22:55:09.489363 12931 layer_factory.hpp:76] Creating layer data
I1007 22:55:09.489449 12931 net.cpp:110] Creating Layer data
I1007 22:55:09.489457 12931 net.cpp:433] data -> data
I1007 22:55:09.489467 12931 net.cpp:433] data -> label
I1007 22:55:09.489476 12931 data_transformer.cpp:25] Loading mean file from: /home/ram21/caffe/caffe/data/ilsvrc12/imagenet_mean.binaryproto
I1007 22:55:09.491675 13185 db_lmdb.cpp:23] Opened lmdb /home/ram21/Fall2015/DeepLearning/HW2/VT-F15-ECE6504-HW2-1.0/2_finetuning-alexnet-wikiart-style/test_lmdb
I1007 22:55:09.492143 12931 data_layer.cpp:45] output data size: 50,3,227,227
I1007 22:55:09.552547 12931 net.cpp:155] Setting up data
I1007 22:55:09.552579 12931 net.cpp:163] Top shape: 50 3 227 227 (7729350)
I1007 22:55:09.552587 12931 net.cpp:163] Top shape: 50 (50)
I1007 22:55:09.552595 12931 layer_factory.hpp:76] Creating layer label_data_1_split
I1007 22:55:09.552608 12931 net.cpp:110] Creating Layer label_data_1_split
I1007 22:55:09.552613 12931 net.cpp:477] label_data_1_split <- label
I1007 22:55:09.552621 12931 net.cpp:433] label_data_1_split -> label_data_1_split_0
I1007 22:55:09.552634 12931 net.cpp:433] label_data_1_split -> label_data_1_split_1
I1007 22:55:09.552723 12931 net.cpp:155] Setting up label_data_1_split
I1007 22:55:09.552732 12931 net.cpp:163] Top shape: 50 (50)
I1007 22:55:09.552738 12931 net.cpp:163] Top shape: 50 (50)
I1007 22:55:09.552743 12931 layer_factory.hpp:76] Creating layer conv1
I1007 22:55:09.552783 12931 net.cpp:110] Creating Layer conv1
I1007 22:55:09.552788 12931 net.cpp:477] conv1 <- data
I1007 22:55:09.552793 12931 net.cpp:433] conv1 -> conv1
I1007 22:55:09.559159 12931 net.cpp:155] Setting up conv1
I1007 22:55:09.559176 12931 net.cpp:163] Top shape: 50 96 55 55 (14520000)
I1007 22:55:09.559191 12931 layer_factory.hpp:76] Creating layer relu1
I1007 22:55:09.559201 12931 net.cpp:110] Creating Layer relu1
I1007 22:55:09.559206 12931 net.cpp:477] relu1 <- conv1
I1007 22:55:09.559214 12931 net.cpp:419] relu1 -> conv1 (in-place)
I1007 22:55:09.559224 12931 net.cpp:155] Setting up relu1
I1007 22:55:09.559231 12931 net.cpp:163] Top shape: 50 96 55 55 (14520000)
I1007 22:55:09.559236 12931 layer_factory.hpp:76] Creating layer norm1
I1007 22:55:09.559244 12931 net.cpp:110] Creating Layer norm1
I1007 22:55:09.559248 12931 net.cpp:477] norm1 <- conv1
I1007 22:55:09.559253 12931 net.cpp:433] norm1 -> norm1
I1007 22:55:09.559288 12931 net.cpp:155] Setting up norm1
I1007 22:55:09.559295 12931 net.cpp:163] Top shape: 50 96 55 55 (14520000)
I1007 22:55:09.559300 12931 layer_factory.hpp:76] Creating layer pool1
I1007 22:55:09.559308 12931 net.cpp:110] Creating Layer pool1
I1007 22:55:09.559312 12931 net.cpp:477] pool1 <- norm1
I1007 22:55:09.559317 12931 net.cpp:433] pool1 -> pool1
I1007 22:55:09.559350 12931 net.cpp:155] Setting up pool1
I1007 22:55:09.559356 12931 net.cpp:163] Top shape: 50 96 27 27 (3499200)
I1007 22:55:09.559360 12931 layer_factory.hpp:76] Creating layer conv2
I1007 22:55:09.559371 12931 net.cpp:110] Creating Layer conv2
I1007 22:55:09.559376 12931 net.cpp:477] conv2 <- pool1
I1007 22:55:09.559382 12931 net.cpp:433] conv2 -> conv2
I1007 22:55:09.574718 12931 net.cpp:155] Setting up conv2
I1007 22:55:09.574749 12931 net.cpp:163] Top shape: 50 256 27 27 (9331200)
I1007 22:55:09.574766 12931 layer_factory.hpp:76] Creating layer relu2
I1007 22:55:09.574777 12931 net.cpp:110] Creating Layer relu2
I1007 22:55:09.574784 12931 net.cpp:477] relu2 <- conv2
I1007 22:55:09.574792 12931 net.cpp:419] relu2 -> conv2 (in-place)
I1007 22:55:09.574806 12931 net.cpp:155] Setting up relu2
I1007 22:55:09.574812 12931 net.cpp:163] Top shape: 50 256 27 27 (9331200)
I1007 22:55:09.574816 12931 layer_factory.hpp:76] Creating layer norm2
I1007 22:55:09.574828 12931 net.cpp:110] Creating Layer norm2
I1007 22:55:09.574832 12931 net.cpp:477] norm2 <- conv2
I1007 22:55:09.574837 12931 net.cpp:433] norm2 -> norm2
I1007 22:55:09.574874 12931 net.cpp:155] Setting up norm2
I1007 22:55:09.574882 12931 net.cpp:163] Top shape: 50 256 27 27 (9331200)
I1007 22:55:09.574885 12931 layer_factory.hpp:76] Creating layer pool2
I1007 22:55:09.574892 12931 net.cpp:110] Creating Layer pool2
I1007 22:55:09.574897 12931 net.cpp:477] pool2 <- norm2
I1007 22:55:09.574901 12931 net.cpp:433] pool2 -> pool2
I1007 22:55:09.574933 12931 net.cpp:155] Setting up pool2
I1007 22:55:09.574939 12931 net.cpp:163] Top shape: 50 256 13 13 (2163200)
I1007 22:55:09.574941 12931 layer_factory.hpp:76] Creating layer conv3
I1007 22:55:09.574952 12931 net.cpp:110] Creating Layer conv3
I1007 22:55:09.574956 12931 net.cpp:477] conv3 <- pool2
I1007 22:55:09.574961 12931 net.cpp:433] conv3 -> conv3
I1007 22:55:09.616508 12931 net.cpp:155] Setting up conv3
I1007 22:55:09.616539 12931 net.cpp:163] Top shape: 50 384 13 13 (3244800)
I1007 22:55:09.616556 12931 layer_factory.hpp:76] Creating layer relu3
I1007 22:55:09.616569 12931 net.cpp:110] Creating Layer relu3
I1007 22:55:09.616575 12931 net.cpp:477] relu3 <- conv3
I1007 22:55:09.616582 12931 net.cpp:419] relu3 -> conv3 (in-place)
I1007 22:55:09.616593 12931 net.cpp:155] Setting up relu3
I1007 22:55:09.616600 12931 net.cpp:163] Top shape: 50 384 13 13 (3244800)
I1007 22:55:09.616605 12931 layer_factory.hpp:76] Creating layer conv4
I1007 22:55:09.616616 12931 net.cpp:110] Creating Layer conv4
I1007 22:55:09.616621 12931 net.cpp:477] conv4 <- conv3
I1007 22:55:09.616627 12931 net.cpp:433] conv4 -> conv4
I1007 22:55:09.649246 12931 net.cpp:155] Setting up conv4
I1007 22:55:09.649271 12931 net.cpp:163] Top shape: 50 384 13 13 (3244800)
I1007 22:55:09.649307 12931 layer_factory.hpp:76] Creating layer relu4
I1007 22:55:09.649318 12931 net.cpp:110] Creating Layer relu4
I1007 22:55:09.649324 12931 net.cpp:477] relu4 <- conv4
I1007 22:55:09.649333 12931 net.cpp:419] relu4 -> conv4 (in-place)
I1007 22:55:09.649343 12931 net.cpp:155] Setting up relu4
I1007 22:55:09.649349 12931 net.cpp:163] Top shape: 50 384 13 13 (3244800)
I1007 22:55:09.649354 12931 layer_factory.hpp:76] Creating layer conv5
I1007 22:55:09.649365 12931 net.cpp:110] Creating Layer conv5
I1007 22:55:09.649369 12931 net.cpp:477] conv5 <- conv4
I1007 22:55:09.649377 12931 net.cpp:433] conv5 -> conv5
I1007 22:55:09.669950 12931 net.cpp:155] Setting up conv5
I1007 22:55:09.669993 12931 net.cpp:163] Top shape: 50 256 13 13 (2163200)
I1007 22:55:09.670016 12931 layer_factory.hpp:76] Creating layer relu5
I1007 22:55:09.670032 12931 net.cpp:110] Creating Layer relu5
I1007 22:55:09.670045 12931 net.cpp:477] relu5 <- conv5
I1007 22:55:09.670059 12931 net.cpp:419] relu5 -> conv5 (in-place)
I1007 22:55:09.670075 12931 net.cpp:155] Setting up relu5
I1007 22:55:09.670088 12931 net.cpp:163] Top shape: 50 256 13 13 (2163200)
I1007 22:55:09.670097 12931 layer_factory.hpp:76] Creating layer pool5
I1007 22:55:09.670111 12931 net.cpp:110] Creating Layer pool5
I1007 22:55:09.670121 12931 net.cpp:477] pool5 <- conv5
I1007 22:55:09.670132 12931 net.cpp:433] pool5 -> pool5
I1007 22:55:09.670179 12931 net.cpp:155] Setting up pool5
I1007 22:55:09.670193 12931 net.cpp:163] Top shape: 50 256 6 6 (460800)
I1007 22:55:09.670203 12931 layer_factory.hpp:76] Creating layer fc6
I1007 22:55:09.670217 12931 net.cpp:110] Creating Layer fc6
I1007 22:55:09.670228 12931 net.cpp:477] fc6 <- pool5
I1007 22:55:09.670239 12931 net.cpp:433] fc6 -> fc6
I1007 22:55:10.764521 12931 net.cpp:155] Setting up fc6
I1007 22:55:10.764542 12931 net.cpp:163] Top shape: 50 4096 (204800)
I1007 22:55:10.764551 12931 layer_factory.hpp:76] Creating layer relu6
I1007 22:55:10.764559 12931 net.cpp:110] Creating Layer relu6
I1007 22:55:10.764564 12931 net.cpp:477] relu6 <- fc6
I1007 22:55:10.764569 12931 net.cpp:419] relu6 -> fc6 (in-place)
I1007 22:55:10.764577 12931 net.cpp:155] Setting up relu6
I1007 22:55:10.764580 12931 net.cpp:163] Top shape: 50 4096 (204800)
I1007 22:55:10.764582 12931 layer_factory.hpp:76] Creating layer drop6
I1007 22:55:10.764588 12931 net.cpp:110] Creating Layer drop6
I1007 22:55:10.764591 12931 net.cpp:477] drop6 <- fc6
I1007 22:55:10.764595 12931 net.cpp:419] drop6 -> fc6 (in-place)
I1007 22:55:10.764612 12931 net.cpp:155] Setting up drop6
I1007 22:55:10.764616 12931 net.cpp:163] Top shape: 50 4096 (204800)
I1007 22:55:10.764618 12931 layer_factory.hpp:76] Creating layer fc7
I1007 22:55:10.764624 12931 net.cpp:110] Creating Layer fc7
I1007 22:55:10.764627 12931 net.cpp:477] fc7 <- fc6
I1007 22:55:10.764631 12931 net.cpp:433] fc7 -> fc7
I1007 22:55:11.253840 12931 net.cpp:155] Setting up fc7
I1007 22:55:11.253862 12931 net.cpp:163] Top shape: 50 4096 (204800)
I1007 22:55:11.253870 12931 layer_factory.hpp:76] Creating layer relu7
I1007 22:55:11.253878 12931 net.cpp:110] Creating Layer relu7
I1007 22:55:11.253882 12931 net.cpp:477] relu7 <- fc7
I1007 22:55:11.253888 12931 net.cpp:419] relu7 -> fc7 (in-place)
I1007 22:55:11.253897 12931 net.cpp:155] Setting up relu7
I1007 22:55:11.253901 12931 net.cpp:163] Top shape: 50 4096 (204800)
I1007 22:55:11.253903 12931 layer_factory.hpp:76] Creating layer drop7
I1007 22:55:11.253908 12931 net.cpp:110] Creating Layer drop7
I1007 22:55:11.253911 12931 net.cpp:477] drop7 <- fc7
I1007 22:55:11.253916 12931 net.cpp:419] drop7 -> fc7 (in-place)
I1007 22:55:11.253937 12931 net.cpp:155] Setting up drop7
I1007 22:55:11.253942 12931 net.cpp:163] Top shape: 50 4096 (204800)
I1007 22:55:11.253944 12931 layer_factory.hpp:76] Creating layer fc8_finetune
I1007 22:55:11.253950 12931 net.cpp:110] Creating Layer fc8_finetune
I1007 22:55:11.253953 12931 net.cpp:477] fc8_finetune <- fc7
I1007 22:55:11.253957 12931 net.cpp:433] fc8_finetune -> fc8_finetune
I1007 22:55:11.255195 12931 net.cpp:155] Setting up fc8_finetune
I1007 22:55:11.255221 12931 net.cpp:163] Top shape: 50 10 (500)
I1007 22:55:11.255225 12931 layer_factory.hpp:76] Creating layer fc8_finetune_fc8_finetune_0_split
I1007 22:55:11.255231 12931 net.cpp:110] Creating Layer fc8_finetune_fc8_finetune_0_split
I1007 22:55:11.255234 12931 net.cpp:477] fc8_finetune_fc8_finetune_0_split <- fc8_finetune
I1007 22:55:11.255237 12931 net.cpp:433] fc8_finetune_fc8_finetune_0_split -> fc8_finetune_fc8_finetune_0_split_0
I1007 22:55:11.255244 12931 net.cpp:433] fc8_finetune_fc8_finetune_0_split -> fc8_finetune_fc8_finetune_0_split_1
I1007 22:55:11.255270 12931 net.cpp:155] Setting up fc8_finetune_fc8_finetune_0_split
I1007 22:55:11.255273 12931 net.cpp:163] Top shape: 50 10 (500)
I1007 22:55:11.255275 12931 net.cpp:163] Top shape: 50 10 (500)
I1007 22:55:11.255278 12931 layer_factory.hpp:76] Creating layer accuracy
I1007 22:55:11.255283 12931 net.cpp:110] Creating Layer accuracy
I1007 22:55:11.255286 12931 net.cpp:477] accuracy <- fc8_finetune_fc8_finetune_0_split_0
I1007 22:55:11.255290 12931 net.cpp:477] accuracy <- label_data_1_split_0
I1007 22:55:11.255292 12931 net.cpp:433] accuracy -> accuracy
I1007 22:55:11.255302 12931 net.cpp:155] Setting up accuracy
…
