…
I1007 04:00:08.194326  1699 net.cpp:339] The NetState phase (0) differed from the phase (1) specified by a rule in layer accuracy
I1007 04:00:08.194622  1699 net.cpp:50] Initializing net from parameters: 
name: "AlexNet"
state {
  phase: TRAIN
}
layer {
  name: "data"
  type: "Data"
  top: "data"
  top: "label"
  include {
    phase: TRAIN
  }
  transform_param {
    mirror: true
    crop_size: 227
    mean_file: "/home/ram21/caffe/caffe/data/ilsvrc12/imagenet_mean.binaryproto"
  }
  data_param {
    source: "/home/ram21/Fall2015/DeepLearning/HW2/VT-F15-ECE6504-HW2-1.0/2_finetuning-alexnet-wikiart-style/train_lmdb"
    batch_size: 256
    backend: LMDB
  }
}
layer {
  name: "conv1"
  type: "Convolution"
  bottom: "data"
  top: "conv1"
  param {
    lr_mult: 1
    decay_mult: 1
  }
  param {
    lr_mult: 2
    decay_mult: 0
  }
  convolution_param {
    num_output: 96
    kernel_size: 11
    stride: 4
    weight_filler {
      type: "gaussian"
      std: 0.01
    }
    bias_filler {
      type: "constant"
      value: 0
    }
  }
}
layer {
  name: "relu1"
  type: "ReLU"
  bottom: "conv1"
  top: "conv1"
}
layer {
  name: "norm1"
  type: "LRN"
  bottom: "conv1"
  top: "norm1"
  lrn_param {
    local_size: 5
    alpha: 0.0001
    beta: 0.75
  }
}
layer {
  name: "pool1"
  type: "Pooling"
  bottom: "norm1"
  top: "pool1"
  pooling_param {
    pool: MAX
    kernel_size: 3
    stride: 2
  }
}
layer {
  name: "conv2"
  type: "Convolution"
  bottom: "pool1"
  top: "conv2"
  param {
    lr_mult: 1
    decay_mult: 1
  }
  param {
    lr_mult: 2
    decay_mult: 0
  }
  convolution_param {
    num_output: 256
    pad: 2
    kernel_size: 5
    group: 2
    weight_filler {
      type: "gaussian"
      std: 0.01
    }
    bias_filler {
      type: "constant"
      value: 0.1
    }
  }
}
layer {
  name: "relu2"
  type: "ReLU"
  bottom: "conv2"
  top: "conv2"
}
layer {
  name: "norm2"
  type: "LRN"
  bottom: "conv2"
  top: "norm2"
  lrn_param {
    local_size: 5
    alpha: 0.0001
    beta: 0.75
  }
}
layer {
  name: "pool2"
  type: "Pooling"
  bottom: "norm2"
  top: "pool2"
  pooling_param {
    pool: MAX
    kernel_size: 3
    stride: 2
  }
}
layer {
  name: "conv3"
  type: "Convolution"
  bottom: "pool2"
  top: "conv3"
  param {
    lr_mult: 1
    decay_mult: 1
  }
  param {
    lr_mult: 2
    decay_mult: 0
  }
  convolution_param {
    num_output: 384
    pad: 1
    kernel_size: 3
    weight_filler {
      type: "gaussian"
      std: 0.01
    }
    bias_filler {
      type: "constant"
      value: 0
    }
  }
}
layer {
  name: "relu3"
  type: "ReLU"
  bottom: "conv3"
  top: "conv3"
}
layer {
  name: "conv4"
  type: "Convolution"
  bottom: "conv3"
  top: "conv4"
  param {
    lr_mult: 1
    decay_mult: 1
  }
  param {
    lr_mult: 2
    decay_mult: 0
  }
  convolution_param {
    num_output: 384
    pad: 1
    kernel_size: 3
    group: 2
    weight_filler {
      type: "gaussian"
      std: 0.01
    }
    bias_filler {
      type: "constant"
      value: 0.1
    }
  }
}
layer {
  name: "relu4"
  type: "ReLU"
  bottom: "conv4"
  top: "conv4"
}
layer {
  name: "conv5"
  type: "Convolution"
  bottom: "conv4"
  top: "conv5"
  param {
    lr_mult: 1
    decay_mult: 1
  }
  param {
    lr_mult: 2
    decay_mult: 0
  }
  convolution_param {
    num_output: 256
    pad: 1
    kernel_size: 3
    group: 2
    weight_filler {
      type: "gaussian"
      std: 0.01
    }
    bias_filler {
      type: "constant"
      value: 0.1
    }
  }
}
layer {
  name: "relu5"
  type: "ReLU"
  bottom: "conv5"
  top: "conv5"
}
layer {
  name: "pool5"
  type: "Pooling"
  bottom: "conv5"
  top: "pool5"
  pooling_param {
    pool: MAX
    kernel_size: 3
    stride: 2
  }
}
layer {
  name: "fc6"
  type: "InnerProduct"
  bottom: "pool5"
  top: "fc6"
  param {
    lr_mult: 1
    decay_mult: 1
  }
  param {
    lr_mult: 2
    decay_mult: 0
  }
  inner_product_param {
    num_output: 4096
    weight_filler {
      type: "gaussian"
      std: 0.005
    }
    bias_filler {
      type: "constant"
      value: 0.1
    }
  }
}
layer {
  name: "relu6"
  type: "ReLU"
  bottom: "fc6"
  top: "fc6"
}
layer {
  name: "drop6"
  type: "Dropout"
  bottom: "fc6"
  top: "fc6"
  dropout_param {
    dropout_ratio: 0.5
  }
}
layer {
  name: "fc7"
  type: "InnerProduct"
  bottom: "fc6"
  top: "fc7"
  param {
    lr_mult: 1
    decay_mult: 1
  }
  param {
    lr_mult: 2
    decay_mult: 0
  }
  inner_product_param {
    num_output: 4096
    weight_filler {
      type: "gaussian"
      std: 0.005
    }
    bias_filler {
      type: "constant"
      value: 0.1
    }
  }
}
layer {
  name: "relu7"
  type: "ReLU"
  bottom: "fc7"
  top: "fc7"
}
layer {
  name: "drop7"
  type: "Dropout"
  bottom: "fc7"
  top: "fc7"
  dropout_param {
    dropout_ratio: 0.5
  }
}
layer {
  name: "fc8_finetune"
  type: "InnerProduct"
  bottom: "fc7"
  top: "fc8_finetune"
  param {
    lr_mult: 1000
    decay_mult: 1
  }
  param {
    lr_mult: 1000
    decay_mult: 0
  }
  inner_product_param {
    num_output: 10
    weight_filler {
      type: "gaussian"
      std: 0.01
    }
    bias_filler {
      type: "constant"
      value: 0
    }
  }
}
layer {
  name: "loss"
  type: "SoftmaxWithLoss"
  bottom: "fc8_finetune"
  bottom: "label"
  top: "loss"
}
I1007 04:00:08.194849  1699 layer_factory.hpp:76] Creating layer data
I1007 04:00:08.195988  1699 net.cpp:110] Creating Layer data
I1007 04:00:08.196039  1699 net.cpp:433] data -> data
I1007 04:00:08.196106  1699 net.cpp:433] data -> label
I1007 04:00:08.196132  1699 data_transformer.cpp:25] Loading mean file from: /home/ram21/caffe/caffe/data/ilsvrc12/imagenet_mean.binaryproto
I1007 04:00:08.216753  1712 db_lmdb.cpp:23] Opened lmdb /home/ram21/Fall2015/DeepLearning/HW2/VT-F15-ECE6504-HW2-1.0/2_finetuning-alexnet-wikiart-style/train_lmdb
I1007 04:00:08.402068  1699 data_layer.cpp:45] output data size: 256,3,227,227
I1007 04:00:08.744491  1699 net.cpp:155] Setting up data
I1007 04:00:08.744601  1699 net.cpp:163] Top shape: 256 3 227 227 (39574272)
I1007 04:00:08.744611  1699 net.cpp:163] Top shape: 256 (256)
I1007 04:00:08.744623  1699 layer_factory.hpp:76] Creating layer conv1
I1007 04:00:08.744660  1699 net.cpp:110] Creating Layer conv1
I1007 04:00:08.744673  1699 net.cpp:477] conv1 <- data
I1007 04:00:08.744695  1699 net.cpp:433] conv1 -> conv1
I1007 04:00:08.764529  1699 net.cpp:155] Setting up conv1
I1007 04:00:08.764569  1699 net.cpp:163] Top shape: 256 96 55 55 (74342400)
I1007 04:00:08.764595  1699 layer_factory.hpp:76] Creating layer relu1
I1007 04:00:08.764612  1699 net.cpp:110] Creating Layer relu1
I1007 04:00:08.764617  1699 net.cpp:477] relu1 <- conv1
I1007 04:00:08.764628  1699 net.cpp:419] relu1 -> conv1 (in-place)
I1007 04:00:08.764646  1699 net.cpp:155] Setting up relu1
I1007 04:00:08.764652  1699 net.cpp:163] Top shape: 256 96 55 55 (74342400)
I1007 04:00:08.764657  1699 layer_factory.hpp:76] Creating layer norm1
I1007 04:00:08.764667  1699 net.cpp:110] Creating Layer norm1
I1007 04:00:08.764672  1699 net.cpp:477] norm1 <- conv1
I1007 04:00:08.764678  1699 net.cpp:433] norm1 -> norm1
I1007 04:00:08.764719  1699 net.cpp:155] Setting up norm1
I1007 04:00:08.764727  1699 net.cpp:163] Top shape: 256 96 55 55 (74342400)
I1007 04:00:08.764732  1699 layer_factory.hpp:76] Creating layer pool1
I1007 04:00:08.764742  1699 net.cpp:110] Creating Layer pool1
I1007 04:00:08.764747  1699 net.cpp:477] pool1 <- norm1
I1007 04:00:08.764753  1699 net.cpp:433] pool1 -> pool1
I1007 04:00:08.764803  1699 net.cpp:155] Setting up pool1
I1007 04:00:08.764812  1699 net.cpp:163] Top shape: 256 96 27 27 (17915904)
I1007 04:00:08.764818  1699 layer_factory.hpp:76] Creating layer conv2
I1007 04:00:08.764883  1699 net.cpp:110] Creating Layer conv2
I1007 04:00:08.764888  1699 net.cpp:477] conv2 <- pool1
I1007 04:00:08.764905  1699 net.cpp:433] conv2 -> conv2
I1007 04:00:08.777604  1699 net.cpp:155] Setting up conv2
I1007 04:00:08.777644  1699 net.cpp:163] Top shape: 256 256 27 27 (47775744)
I1007 04:00:08.777663  1699 layer_factory.hpp:76] Creating layer relu2
I1007 04:00:08.777676  1699 net.cpp:110] Creating Layer relu2
I1007 04:00:08.777681  1699 net.cpp:477] relu2 <- conv2
I1007 04:00:08.777693  1699 net.cpp:419] relu2 -> conv2 (in-place)
I1007 04:00:08.777708  1699 net.cpp:155] Setting up relu2
I1007 04:00:08.777714  1699 net.cpp:163] Top shape: 256 256 27 27 (47775744)
I1007 04:00:08.777719  1699 layer_factory.hpp:76] Creating layer norm2
I1007 04:00:08.777727  1699 net.cpp:110] Creating Layer norm2
I1007 04:00:08.777731  1699 net.cpp:477] norm2 <- conv2
I1007 04:00:08.777739  1699 net.cpp:433] norm2 -> norm2
I1007 04:00:08.777775  1699 net.cpp:155] Setting up norm2
I1007 04:00:08.777781  1699 net.cpp:163] Top shape: 256 256 27 27 (47775744)
I1007 04:00:08.777786  1699 layer_factory.hpp:76] Creating layer pool2
I1007 04:00:08.777798  1699 net.cpp:110] Creating Layer pool2
I1007 04:00:08.777804  1699 net.cpp:477] pool2 <- norm2
I1007 04:00:08.777812  1699 net.cpp:433] pool2 -> pool2
I1007 04:00:08.777843  1699 net.cpp:155] Setting up pool2
I1007 04:00:08.777851  1699 net.cpp:163] Top shape: 256 256 13 13 (11075584)
I1007 04:00:08.777855  1699 layer_factory.hpp:76] Creating layer conv3
I1007 04:00:08.777869  1699 net.cpp:110] Creating Layer conv3
I1007 04:00:08.777874  1699 net.cpp:477] conv3 <- pool2
I1007 04:00:08.777883  1699 net.cpp:433] conv3 -> conv3
I1007 04:00:08.813539  1699 net.cpp:155] Setting up conv3
I1007 04:00:08.813591  1699 net.cpp:163] Top shape: 256 384 13 13 (16613376)
I1007 04:00:08.813629  1699 layer_factory.hpp:76] Creating layer relu3
I1007 04:00:08.813653  1699 net.cpp:110] Creating Layer relu3
I1007 04:00:08.813665  1699 net.cpp:477] relu3 <- conv3
I1007 04:00:08.813683  1699 net.cpp:419] relu3 -> conv3 (in-place)
I1007 04:00:08.813707  1699 net.cpp:155] Setting up relu3
I1007 04:00:08.813719  1699 net.cpp:163] Top shape: 256 384 13 13 (16613376)
I1007 04:00:08.813729  1699 layer_factory.hpp:76] Creating layer conv4
I1007 04:00:08.813746  1699 net.cpp:110] Creating Layer conv4
I1007 04:00:08.813752  1699 net.cpp:477] conv4 <- conv3
I1007 04:00:08.813762  1699 net.cpp:433] conv4 -> conv4
I1007 04:00:08.839614  1699 net.cpp:155] Setting up conv4
I1007 04:00:08.839669  1699 net.cpp:163] Top shape: 256 384 13 13 (16613376)
I1007 04:00:08.839682  1699 layer_factory.hpp:76] Creating layer relu4
I1007 04:00:08.839696  1699 net.cpp:110] Creating Layer relu4
I1007 04:00:08.839702  1699 net.cpp:477] relu4 <- conv4
I1007 04:00:08.839715  1699 net.cpp:419] relu4 -> conv4 (in-place)
I1007 04:00:08.839730  1699 net.cpp:155] Setting up relu4
I1007 04:00:08.839740  1699 net.cpp:163] Top shape: 256 384 13 13 (16613376)
I1007 04:00:08.839745  1699 layer_factory.hpp:76] Creating layer conv5
I1007 04:00:08.839766  1699 net.cpp:110] Creating Layer conv5
I1007 04:00:08.839771  1699 net.cpp:477] conv5 <- conv4
I1007 04:00:08.839777  1699 net.cpp:433] conv5 -> conv5
I1007 04:00:08.857601  1699 net.cpp:155] Setting up conv5
I1007 04:00:08.857663  1699 net.cpp:163] Top shape: 256 256 13 13 (11075584)
I1007 04:00:08.857686  1699 layer_factory.hpp:76] Creating layer relu5
I1007 04:00:08.857702  1699 net.cpp:110] Creating Layer relu5
I1007 04:00:08.857713  1699 net.cpp:477] relu5 <- conv5
I1007 04:00:08.857729  1699 net.cpp:419] relu5 -> conv5 (in-place)
I1007 04:00:08.857753  1699 net.cpp:155] Setting up relu5
I1007 04:00:08.857765  1699 net.cpp:163] Top shape: 256 256 13 13 (11075584)
I1007 04:00:08.857775  1699 layer_factory.hpp:76] Creating layer pool5
I1007 04:00:08.857794  1699 net.cpp:110] Creating Layer pool5
I1007 04:00:08.857805  1699 net.cpp:477] pool5 <- conv5
I1007 04:00:08.857823  1699 net.cpp:433] pool5 -> pool5
I1007 04:00:08.857892  1699 net.cpp:155] Setting up pool5
I1007 04:00:08.857939  1699 net.cpp:163] Top shape: 256 256 6 6 (2359296)
I1007 04:00:08.857957  1699 layer_factory.hpp:76] Creating layer fc6
I1007 04:00:08.857995  1699 net.cpp:110] Creating Layer fc6
I1007 04:00:08.858006  1699 net.cpp:477] fc6 <- pool5
I1007 04:00:08.858022  1699 net.cpp:433] fc6 -> fc6
I1007 04:00:10.417155  1699 net.cpp:155] Setting up fc6
I1007 04:00:10.417206  1699 net.cpp:163] Top shape: 256 4096 (1048576)
I1007 04:00:10.417219  1699 layer_factory.hpp:76] Creating layer relu6
I1007 04:00:10.417234  1699 net.cpp:110] Creating Layer relu6
I1007 04:00:10.417242  1699 net.cpp:477] relu6 <- fc6
I1007 04:00:10.417250  1699 net.cpp:419] relu6 -> fc6 (in-place)
I1007 04:00:10.417264  1699 net.cpp:155] Setting up relu6
I1007 04:00:10.417273  1699 net.cpp:163] Top shape: 256 4096 (1048576)
I1007 04:00:10.417278  1699 layer_factory.hpp:76] Creating layer drop6
I1007 04:00:10.417285  1699 net.cpp:110] Creating Layer drop6
I1007 04:00:10.417292  1699 net.cpp:477] drop6 <- fc6
I1007 04:00:10.417297  1699 net.cpp:419] drop6 -> fc6 (in-place)
I1007 04:00:10.417330  1699 net.cpp:155] Setting up drop6
I1007 04:00:10.417338  1699 net.cpp:163] Top shape: 256 4096 (1048576)
I1007 04:00:10.417342  1699 layer_factory.hpp:76] Creating layer fc7
I1007 04:00:10.417356  1699 net.cpp:110] Creating Layer fc7
I1007 04:00:10.417359  1699 net.cpp:477] fc7 <- fc6
I1007 04:00:10.417366  1699 net.cpp:433] fc7 -> fc7
I1007 04:00:11.116611  1699 net.cpp:155] Setting up fc7
I1007 04:00:11.116664  1699 net.cpp:163] Top shape: 256 4096 (1048576)
I1007 04:00:11.116683  1699 layer_factory.hpp:76] Creating layer relu7
I1007 04:00:11.116700  1699 net.cpp:110] Creating Layer relu7
I1007 04:00:11.116709  1699 net.cpp:477] relu7 <- fc7
I1007 04:00:11.116722  1699 net.cpp:419] relu7 -> fc7 (in-place)
I1007 04:00:11.116742  1699 net.cpp:155] Setting up relu7
I1007 04:00:11.116751  1699 net.cpp:163] Top shape: 256 4096 (1048576)
I1007 04:00:11.116760  1699 layer_factory.hpp:76] Creating layer drop7
I1007 04:00:11.116771  1699 net.cpp:110] Creating Layer drop7
I1007 04:00:11.116778  1699 net.cpp:477] drop7 <- fc7
I1007 04:00:11.116791  1699 net.cpp:419] drop7 -> fc7 (in-place)
I1007 04:00:11.116822  1699 net.cpp:155] Setting up drop7
I1007 04:00:11.116832  1699 net.cpp:163] Top shape: 256 4096 (1048576)
I1007 04:00:11.116839  1699 layer_factory.hpp:76] Creating layer fc8_finetune
I1007 04:00:11.116853  1699 net.cpp:110] Creating Layer fc8_finetune
I1007 04:00:11.116861  1699 net.cpp:477] fc8_finetune <- fc7
I1007 04:00:11.116870  1699 net.cpp:433] fc8_finetune -> fc8_finetune
I1007 04:00:11.119385  1699 net.cpp:155] Setting up fc8_finetune
I1007 04:00:11.119424  1699 net.cpp:163] Top shape: 256 10 (2560)
I1007 04:00:11.119439  1699 layer_factory.hpp:76] Creating layer loss
I1007 04:00:11.119457  1699 net.cpp:110] Creating Layer loss
I1007 04:00:11.119465  1699 net.cpp:477] loss <- fc8_finetune
I1007 04:00:11.119475  1699 net.cpp:477] loss <- label
I1007 04:00:11.119491  1699 net.cpp:433] loss -> loss
I1007 04:00:11.119526  1699 layer_factory.hpp:76] Creating layer loss
I1007 04:00:11.119642  1699 net.cpp:155] Setting up loss
…
I1007 04:00:11.121248  1699 net.cpp:339] The NetState phase (1) differed from the phase (0) specified by a rule in layer data
I1007 04:00:11.121553  1699 net.cpp:50] Initializing net from parameters: 
name: "AlexNet"
state {
  phase: TEST
}
layer {
  name: "data"
  type: "Data"
  top: "data"
  top: "label"
  include {
    phase: TEST
  }
  transform_param {
    mirror: false
    crop_size: 227
    mean_file: "/home/ram21/caffe/caffe/data/ilsvrc12/imagenet_mean.binaryproto"
  }
  data_param {
    source: "/home/ram21/Fall2015/DeepLearning/HW2/VT-F15-ECE6504-HW2-1.0/2_finetuning-alexnet-wikiart-style/test_lmdb"
    batch_size: 50
    backend: LMDB
  }
}
layer {
  name: "conv1"
  type: "Convolution"
  bottom: "data"
  top: "conv1"
  param {
    lr_mult: 1
    decay_mult: 1
  }
  param {
    lr_mult: 2
    decay_mult: 0
  }
  convolution_param {
    num_output: 96
    kernel_size: 11
    stride: 4
    weight_filler {
      type: "gaussian"
      std: 0.01
    }
    bias_filler {
      type: "constant"
      value: 0
    }
  }
}
layer {
  name: "relu1"
  type: "ReLU"
  bottom: "conv1"
  top: "conv1"
}
layer {
  name: "norm1"
  type: "LRN"
  bottom: "conv1"
  top: "norm1"
  lrn_param {
    local_size: 5
    alpha: 0.0001
    beta: 0.75
  }
}
layer {
  name: "pool1"
  type: "Pooling"
  bottom: "norm1"
  top: "pool1"
  pooling_param {
    pool: MAX
    kernel_size: 3
    stride: 2
  }
}
layer {
  name: "conv2"
  type: "Convolution"
  bottom: "pool1"
  top: "conv2"
  param {
    lr_mult: 1
    decay_mult: 1
  }
  param {
    lr_mult: 2
    decay_mult: 0
  }
  convolution_param {
    num_output: 256
    pad: 2
    kernel_size: 5
    group: 2
    weight_filler {
      type: "gaussian"
      std: 0.01
    }
    bias_filler {
      type: "constant"
      value: 0.1
    }
  }
}
layer {
  name: "relu2"
  type: "ReLU"
  bottom: "conv2"
  top: "conv2"
}
layer {
  name: "norm2"
  type: "LRN"
  bottom: "conv2"
  top: "norm2"
  lrn_param {
    local_size: 5
    alpha: 0.0001
    beta: 0.75
  }
}
layer {
  name: "pool2"
  type: "Pooling"
  bottom: "norm2"
  top: "pool2"
  pooling_param {
    pool: MAX
    kernel_size: 3
    stride: 2
  }
}
layer {
  name: "conv3"
  type: "Convolution"
  bottom: "pool2"
  top: "conv3"
  param {
    lr_mult: 1
    decay_mult: 1
  }
  param {
    lr_mult: 2
    decay_mult: 0
  }
  convolution_param {
    num_output: 384
    pad: 1
    kernel_size: 3
    weight_filler {
      type: "gaussian"
      std: 0.01
    }
    bias_filler {
      type: "constant"
      value: 0
    }
  }
}
layer {
  name: "relu3"
  type: "ReLU"
  bottom: "conv3"
  top: "conv3"
}
layer {
  name: "conv4"
  type: "Convolution"
  bottom: "conv3"
  top: "conv4"
  param {
    lr_mult: 1
    decay_mult: 1
  }
  param {
    lr_mult: 2
    decay_mult: 0
  }
  convolution_param {
    num_output: 384
    pad: 1
    kernel_size: 3
    group: 2
    weight_filler {
      type: "gaussian"
      std: 0.01
    }
    bias_filler {
      type: "constant"
      value: 0.1
    }
  }
}
layer {
  name: "relu4"
  type: "ReLU"
  bottom: "conv4"
  top: "conv4"
}
layer {
  name: "conv5"
  type: "Convolution"
  bottom: "conv4"
  top: "conv5"
  param {
    lr_mult: 1
    decay_mult: 1
  }
  param {
    lr_mult: 2
    decay_mult: 0
  }
  convolution_param {
    num_output: 256
    pad: 1
    kernel_size: 3
    group: 2
    weight_filler {
      type: "gaussian"
      std: 0.01
    }
    bias_filler {
      type: "constant"
      value: 0.1
    }
  }
}
layer {
  name: "relu5"
  type: "ReLU"
  bottom: "conv5"
  top: "conv5"
}
layer {
  name: "pool5"
  type: "Pooling"
  bottom: "conv5"
  top: "pool5"
  pooling_param {
    pool: MAX
    kernel_size: 3
    stride: 2
  }
}
layer {
  name: "fc6"
  type: "InnerProduct"
  bottom: "pool5"
  top: "fc6"
  param {
    lr_mult: 1
    decay_mult: 1
  }
  param {
    lr_mult: 2
    decay_mult: 0
  }
  inner_product_param {
    num_output: 4096
    weight_filler {
      type: "gaussian"
      std: 0.005
    }
    bias_filler {
      type: "constant"
      value: 0.1
    }
  }
}
layer {
  name: "relu6"
  type: "ReLU"
  bottom: "fc6"
  top: "fc6"
}
layer {
  name: "drop6"
  type: "Dropout"
  bottom: "fc6"
  top: "fc6"
  dropout_param {
    dropout_ratio: 0.5
  }
}
layer {
  name: "fc7"
  type: "InnerProduct"
  bottom: "fc6"
  top: "fc7"
  param {
    lr_mult: 1
    decay_mult: 1
  }
  param {
    lr_mult: 2
    decay_mult: 0
  }
  inner_product_param {
    num_output: 4096
    weight_filler {
      type: "gaussian"
      std: 0.005
    }
    bias_filler {
      type: "constant"
      value: 0.1
    }
  }
}
layer {
  name: "relu7"
  type: "ReLU"
  bottom: "fc7"
  top: "fc7"
}
layer {
  name: "drop7"
  type: "Dropout"
  bottom: "fc7"
  top: "fc7"
  dropout_param {
    dropout_ratio: 0.5
  }
}
layer {
  name: "fc8_finetune"
  type: "InnerProduct"
  bottom: "fc7"
  top: "fc8_finetune"
  param {
    lr_mult: 1000
    decay_mult: 1
  }
  param {
    lr_mult: 1000
    decay_mult: 0
  }
  inner_product_param {
    num_output: 10
    weight_filler {
      type: "gaussian"
      std: 0.01
    }
    bias_filler {
      type: "constant"
      value: 0
    }
  }
}
layer {
  name: "accuracy"
  type: "Accuracy"
  bottom: "fc8_finetune"
  bottom: "label"
  top: "accuracy"
  include {
    phase: TEST
  }
}
layer {
  name: "loss"
  type: "SoftmaxWithLoss"
  bottom: "fc8_finetune"
  bottom: "label"
  top: "loss"
}
I1007 04:00:11.121747  1699 layer_factory.hpp:76] Creating layer data
I1007 04:00:11.122330  1699 net.cpp:110] Creating Layer data
I1007 04:00:11.122347  1699 net.cpp:433] data -> data
I1007 04:00:11.122373  1699 net.cpp:433] data -> label
I1007 04:00:11.122390  1699 data_transformer.cpp:25] Loading mean file from: /home/ram21/caffe/caffe/data/ilsvrc12/imagenet_mean.binaryproto
I1007 04:00:11.143142  1723 db_lmdb.cpp:23] Opened lmdb /home/ram21/Fall2015/DeepLearning/HW2/VT-F15-ECE6504-HW2-1.0/2_finetuning-alexnet-wikiart-style/test_lmdb
I1007 04:00:11.229915  1699 data_layer.cpp:45] output data size: 50,3,227,227
I1007 04:00:11.298382  1699 net.cpp:155] Setting up data
I1007 04:00:11.298444  1699 net.cpp:163] Top shape: 50 3 227 227 (7729350)
I1007 04:00:11.298451  1699 net.cpp:163] Top shape: 50 (50)
I1007 04:00:11.298463  1699 layer_factory.hpp:76] Creating layer label_data_1_split
I1007 04:00:11.298482  1699 net.cpp:110] Creating Layer label_data_1_split
I1007 04:00:11.298490  1699 net.cpp:477] label_data_1_split <- label
I1007 04:00:11.298504  1699 net.cpp:433] label_data_1_split -> label_data_1_split_0
I1007 04:00:11.298526  1699 net.cpp:433] label_data_1_split -> label_data_1_split_1
I1007 04:00:11.298727  1699 net.cpp:155] Setting up label_data_1_split
I1007 04:00:11.298738  1699 net.cpp:163] Top shape: 50 (50)
I1007 04:00:11.298743  1699 net.cpp:163] Top shape: 50 (50)
I1007 04:00:11.298748  1699 layer_factory.hpp:76] Creating layer conv1
I1007 04:00:11.298830  1699 net.cpp:110] Creating Layer conv1
I1007 04:00:11.298845  1699 net.cpp:477] conv1 <- data
I1007 04:00:11.298854  1699 net.cpp:433] conv1 -> conv1
I1007 04:00:11.300758  1699 net.cpp:155] Setting up conv1
I1007 04:00:11.300806  1699 net.cpp:163] Top shape: 50 96 55 55 (14520000)
I1007 04:00:11.300835  1699 layer_factory.hpp:76] Creating layer relu1
I1007 04:00:11.300856  1699 net.cpp:110] Creating Layer relu1
I1007 04:00:11.300868  1699 net.cpp:477] relu1 <- conv1
I1007 04:00:11.300881  1699 net.cpp:419] relu1 -> conv1 (in-place)
I1007 04:00:11.300906  1699 net.cpp:155] Setting up relu1
I1007 04:00:11.300918  1699 net.cpp:163] Top shape: 50 96 55 55 (14520000)
I1007 04:00:11.300926  1699 layer_factory.hpp:76] Creating layer norm1
I1007 04:00:11.300943  1699 net.cpp:110] Creating Layer norm1
I1007 04:00:11.300951  1699 net.cpp:477] norm1 <- conv1
I1007 04:00:11.300961  1699 net.cpp:433] norm1 -> norm1
I1007 04:00:11.301017  1699 net.cpp:155] Setting up norm1
I1007 04:00:11.301033  1699 net.cpp:163] Top shape: 50 96 55 55 (14520000)
I1007 04:00:11.301043  1699 layer_factory.hpp:76] Creating layer pool1
I1007 04:00:11.301059  1699 net.cpp:110] Creating Layer pool1
I1007 04:00:11.301069  1699 net.cpp:477] pool1 <- norm1
I1007 04:00:11.301081  1699 net.cpp:433] pool1 -> pool1
I1007 04:00:11.301143  1699 net.cpp:155] Setting up pool1
I1007 04:00:11.301156  1699 net.cpp:163] Top shape: 50 96 27 27 (3499200)
I1007 04:00:11.301162  1699 layer_factory.hpp:76] Creating layer conv2
I1007 04:00:11.301177  1699 net.cpp:110] Creating Layer conv2
I1007 04:00:11.301182  1699 net.cpp:477] conv2 <- pool1
I1007 04:00:11.301189  1699 net.cpp:433] conv2 -> conv2
I1007 04:00:11.316123  1699 net.cpp:155] Setting up conv2
I1007 04:00:11.316182  1699 net.cpp:163] Top shape: 50 256 27 27 (9331200)
I1007 04:00:11.316205  1699 layer_factory.hpp:76] Creating layer relu2
I1007 04:00:11.316223  1699 net.cpp:110] Creating Layer relu2
I1007 04:00:11.316231  1699 net.cpp:477] relu2 <- conv2
I1007 04:00:11.316242  1699 net.cpp:419] relu2 -> conv2 (in-place)
I1007 04:00:11.316258  1699 net.cpp:155] Setting up relu2
I1007 04:00:11.316264  1699 net.cpp:163] Top shape: 50 256 27 27 (9331200)
I1007 04:00:11.316273  1699 layer_factory.hpp:76] Creating layer norm2
I1007 04:00:11.316288  1699 net.cpp:110] Creating Layer norm2
I1007 04:00:11.316293  1699 net.cpp:477] norm2 <- conv2
I1007 04:00:11.316300  1699 net.cpp:433] norm2 -> norm2
I1007 04:00:11.316342  1699 net.cpp:155] Setting up norm2
I1007 04:00:11.316351  1699 net.cpp:163] Top shape: 50 256 27 27 (9331200)
I1007 04:00:11.316356  1699 layer_factory.hpp:76] Creating layer pool2
I1007 04:00:11.316366  1699 net.cpp:110] Creating Layer pool2
I1007 04:00:11.316370  1699 net.cpp:477] pool2 <- norm2
I1007 04:00:11.316376  1699 net.cpp:433] pool2 -> pool2
I1007 04:00:11.316417  1699 net.cpp:155] Setting up pool2
I1007 04:00:11.316426  1699 net.cpp:163] Top shape: 50 256 13 13 (2163200)
I1007 04:00:11.316429  1699 layer_factory.hpp:76] Creating layer conv3
I1007 04:00:11.316443  1699 net.cpp:110] Creating Layer conv3
I1007 04:00:11.316448  1699 net.cpp:477] conv3 <- pool2
I1007 04:00:11.316457  1699 net.cpp:433] conv3 -> conv3
I1007 04:00:11.353412  1699 net.cpp:155] Setting up conv3
I1007 04:00:11.353459  1699 net.cpp:163] Top shape: 50 384 13 13 (3244800)
I1007 04:00:11.353480  1699 layer_factory.hpp:76] Creating layer relu3
I1007 04:00:11.353493  1699 net.cpp:110] Creating Layer relu3
I1007 04:00:11.353500  1699 net.cpp:477] relu3 <- conv3
I1007 04:00:11.353509  1699 net.cpp:419] relu3 -> conv3 (in-place)
I1007 04:00:11.353524  1699 net.cpp:155] Setting up relu3
I1007 04:00:11.353530  1699 net.cpp:163] Top shape: 50 384 13 13 (3244800)
I1007 04:00:11.353535  1699 layer_factory.hpp:76] Creating layer conv4
I1007 04:00:11.353550  1699 net.cpp:110] Creating Layer conv4
I1007 04:00:11.353555  1699 net.cpp:477] conv4 <- conv3
I1007 04:00:11.353569  1699 net.cpp:433] conv4 -> conv4
I1007 04:00:11.381250  1699 net.cpp:155] Setting up conv4
I1007 04:00:11.381314  1699 net.cpp:163] Top shape: 50 384 13 13 (3244800)
I1007 04:00:11.381382  1699 layer_factory.hpp:76] Creating layer relu4
I1007 04:00:11.381399  1699 net.cpp:110] Creating Layer relu4
I1007 04:00:11.381407  1699 net.cpp:477] relu4 <- conv4
I1007 04:00:11.381417  1699 net.cpp:419] relu4 -> conv4 (in-place)
I1007 04:00:11.381433  1699 net.cpp:155] Setting up relu4
I1007 04:00:11.381439  1699 net.cpp:163] Top shape: 50 384 13 13 (3244800)
I1007 04:00:11.381443  1699 layer_factory.hpp:76] Creating layer conv5
I1007 04:00:11.381456  1699 net.cpp:110] Creating Layer conv5
I1007 04:00:11.381460  1699 net.cpp:477] conv5 <- conv4
I1007 04:00:11.381470  1699 net.cpp:433] conv5 -> conv5
I1007 04:00:11.403791  1699 net.cpp:155] Setting up conv5
I1007 04:00:11.403842  1699 net.cpp:163] Top shape: 50 256 13 13 (2163200)
I1007 04:00:11.403863  1699 layer_factory.hpp:76] Creating layer relu5
I1007 04:00:11.403877  1699 net.cpp:110] Creating Layer relu5
I1007 04:00:11.403883  1699 net.cpp:477] relu5 <- conv5
I1007 04:00:11.403892  1699 net.cpp:419] relu5 -> conv5 (in-place)
I1007 04:00:11.403908  1699 net.cpp:155] Setting up relu5
I1007 04:00:11.403913  1699 net.cpp:163] Top shape: 50 256 13 13 (2163200)
I1007 04:00:11.403918  1699 layer_factory.hpp:76] Creating layer pool5
I1007 04:00:11.403928  1699 net.cpp:110] Creating Layer pool5
I1007 04:00:11.403931  1699 net.cpp:477] pool5 <- conv5
I1007 04:00:11.403937  1699 net.cpp:433] pool5 -> pool5
I1007 04:00:11.403985  1699 net.cpp:155] Setting up pool5
I1007 04:00:11.403992  1699 net.cpp:163] Top shape: 50 256 6 6 (460800)
I1007 04:00:11.403997  1699 layer_factory.hpp:76] Creating layer fc6
I1007 04:00:11.404011  1699 net.cpp:110] Creating Layer fc6
I1007 04:00:11.404016  1699 net.cpp:477] fc6 <- pool5
I1007 04:00:11.404022  1699 net.cpp:433] fc6 -> fc6
I1007 04:00:13.090858  1699 net.cpp:155] Setting up fc6
I1007 04:00:13.090936  1699 net.cpp:163] Top shape: 50 4096 (204800)
I1007 04:00:13.090956  1699 layer_factory.hpp:76] Creating layer relu6
I1007 04:00:13.090975  1699 net.cpp:110] Creating Layer relu6
I1007 04:00:13.090981  1699 net.cpp:477] relu6 <- fc6
I1007 04:00:13.090993  1699 net.cpp:419] relu6 -> fc6 (in-place)
I1007 04:00:13.091014  1699 net.cpp:155] Setting up relu6
I1007 04:00:13.091025  1699 net.cpp:163] Top shape: 50 4096 (204800)
I1007 04:00:13.091028  1699 layer_factory.hpp:76] Creating layer drop6
I1007 04:00:13.091053  1699 net.cpp:110] Creating Layer drop6
I1007 04:00:13.091058  1699 net.cpp:477] drop6 <- fc6
I1007 04:00:13.091064  1699 net.cpp:419] drop6 -> fc6 (in-place)
I1007 04:00:13.091097  1699 net.cpp:155] Setting up drop6
I1007 04:00:13.091106  1699 net.cpp:163] Top shape: 50 4096 (204800)
I1007 04:00:13.091111  1699 layer_factory.hpp:76] Creating layer fc7
I1007 04:00:13.091125  1699 net.cpp:110] Creating Layer fc7
I1007 04:00:13.091128  1699 net.cpp:477] fc7 <- fc6
I1007 04:00:13.091147  1699 net.cpp:433] fc7 -> fc7
I1007 04:00:13.860492  1699 net.cpp:155] Setting up fc7
I1007 04:00:13.860539  1699 net.cpp:163] Top shape: 50 4096 (204800)
I1007 04:00:13.860558  1699 layer_factory.hpp:76] Creating layer relu7
I1007 04:00:13.860575  1699 net.cpp:110] Creating Layer relu7
I1007 04:00:13.860584  1699 net.cpp:477] relu7 <- fc7
I1007 04:00:13.860601  1699 net.cpp:419] relu7 -> fc7 (in-place)
I1007 04:00:13.860621  1699 net.cpp:155] Setting up relu7
I1007 04:00:13.860630  1699 net.cpp:163] Top shape: 50 4096 (204800)
I1007 04:00:13.860635  1699 layer_factory.hpp:76] Creating layer drop7
I1007 04:00:13.860646  1699 net.cpp:110] Creating Layer drop7
I1007 04:00:13.860653  1699 net.cpp:477] drop7 <- fc7
I1007 04:00:13.860662  1699 net.cpp:419] drop7 -> fc7 (in-place)
I1007 04:00:13.860702  1699 net.cpp:155] Setting up drop7
I1007 04:00:13.860713  1699 net.cpp:163] Top shape: 50 4096 (204800)
I1007 04:00:13.860720  1699 layer_factory.hpp:76] Creating layer fc8_finetune
I1007 04:00:13.860738  1699 net.cpp:110] Creating Layer fc8_finetune
I1007 04:00:13.860744  1699 net.cpp:477] fc8_finetune <- fc7
I1007 04:00:13.860754  1699 net.cpp:433] fc8_finetune -> fc8_finetune
I1007 04:00:13.863243  1699 net.cpp:155] Setting up fc8_finetune
I1007 04:00:13.863333  1699 net.cpp:163] Top shape: 50 10 (500)
I1007 04:00:13.863348  1699 layer_factory.hpp:76] Creating layer fc8_finetune_fc8_finetune_0_split
I1007 04:00:13.863363  1699 net.cpp:110] Creating Layer fc8_finetune_fc8_finetune_0_split
I1007 04:00:13.863370  1699 net.cpp:477] fc8_finetune_fc8_finetune_0_split <- fc8_finetune
I1007 04:00:13.863384  1699 net.cpp:433] fc8_finetune_fc8_finetune_0_split -> fc8_finetune_fc8_finetune_0_split_0
I1007 04:00:13.863399  1699 net.cpp:433] fc8_finetune_fc8_finetune_0_split -> fc8_finetune_fc8_finetune_0_split_1
I1007 04:00:13.863451  1699 net.cpp:155] Setting up fc8_finetune_fc8_finetune_0_split
I1007 04:00:13.863463  1699 net.cpp:163] Top shape: 50 10 (500)
I1007 04:00:13.863471  1699 net.cpp:163] Top shape: 50 10 (500)
I1007 04:00:13.863478  1699 layer_factory.hpp:76] Creating layer accuracy
I1007 04:00:13.863490  1699 net.cpp:110] Creating Layer accuracy
I1007 04:00:13.863497  1699 net.cpp:477] accuracy <- fc8_finetune_fc8_finetune_0_split_0
I1007 04:00:13.863505  1699 net.cpp:477] accuracy <- label_data_1_split_0
I1007 04:00:13.863517  1699 net.cpp:433] accuracy -> accuracy
I1007 04:00:13.863539  1699 net.cpp:155] Setting up accuracy
…
