…
I1007 03:58:43.891355 26345 net.cpp:339] The NetState phase (0) differed from the phase (1) specified by a rule in layer accuracy
I1007 03:58:43.891630 26345 net.cpp:50] Initializing net from parameters: 
name: "AlexNet"
state {
  phase: TRAIN
}
layer {
  name: "data"
  type: "Data"
  top: "data"
  top: "label"
  include {
    phase: TRAIN
  }
  transform_param {
    mirror: true
    crop_size: 227
    mean_file: "/home/ram21/caffe/caffe/data/ilsvrc12/imagenet_mean.binaryproto"
  }
  data_param {
    source: "/home/ram21/Fall2015/DeepLearning/HW2/VT-F15-ECE6504-HW2-1.0/2_finetuning-alexnet-wikiart-style/train_lmdb"
    batch_size: 256
    backend: LMDB
  }
}
layer {
  name: "conv1"
  type: "Convolution"
  bottom: "data"
  top: "conv1"
  param {
    lr_mult: 1
    decay_mult: 1
  }
  param {
    lr_mult: 2
    decay_mult: 0
  }
  convolution_param {
    num_output: 96
    kernel_size: 11
    stride: 4
    weight_filler {
      type: "gaussian"
      std: 0.01
    }
    bias_filler {
      type: "constant"
      value: 0
    }
  }
}
layer {
  name: "relu1"
  type: "ReLU"
  bottom: "conv1"
  top: "conv1"
}
layer {
  name: "norm1"
  type: "LRN"
  bottom: "conv1"
  top: "norm1"
  lrn_param {
    local_size: 5
    alpha: 0.0001
    beta: 0.75
  }
}
layer {
  name: "pool1"
  type: "Pooling"
  bottom: "norm1"
  top: "pool1"
  pooling_param {
    pool: MAX
    kernel_size: 3
    stride: 2
  }
}
layer {
  name: "conv2"
  type: "Convolution"
  bottom: "pool1"
  top: "conv2"
  param {
    lr_mult: 1
    decay_mult: 1
  }
  param {
    lr_mult: 2
    decay_mult: 0
  }
  convolution_param {
    num_output: 256
    pad: 2
    kernel_size: 5
    group: 2
    weight_filler {
      type: "gaussian"
      std: 0.01
    }
    bias_filler {
      type: "constant"
      value: 0.1
    }
  }
}
layer {
  name: "relu2"
  type: "ReLU"
  bottom: "conv2"
  top: "conv2"
}
layer {
  name: "norm2"
  type: "LRN"
  bottom: "conv2"
  top: "norm2"
  lrn_param {
    local_size: 5
    alpha: 0.0001
    beta: 0.75
  }
}
layer {
  name: "pool2"
  type: "Pooling"
  bottom: "norm2"
  top: "pool2"
  pooling_param {
    pool: MAX
    kernel_size: 3
    stride: 2
  }
}
layer {
  name: "conv3"
  type: "Convolution"
  bottom: "pool2"
  top: "conv3"
  param {
    lr_mult: 1
    decay_mult: 1
  }
  param {
    lr_mult: 2
    decay_mult: 0
  }
  convolution_param {
    num_output: 384
    pad: 1
    kernel_size: 3
    weight_filler {
      type: "gaussian"
      std: 0.01
    }
    bias_filler {
      type: "constant"
      value: 0
    }
  }
}
layer {
  name: "relu3"
  type: "ReLU"
  bottom: "conv3"
  top: "conv3"
}
layer {
  name: "conv4"
  type: "Convolution"
  bottom: "conv3"
  top: "conv4"
  param {
    lr_mult: 1
    decay_mult: 1
  }
  param {
    lr_mult: 2
    decay_mult: 0
  }
  convolution_param {
    num_output: 384
    pad: 1
    kernel_size: 3
    group: 2
    weight_filler {
      type: "gaussian"
      std: 0.01
    }
    bias_filler {
      type: "constant"
      value: 0.1
    }
  }
}
layer {
  name: "relu4"
  type: "ReLU"
  bottom: "conv4"
  top: "conv4"
}
layer {
  name: "conv5"
  type: "Convolution"
  bottom: "conv4"
  top: "conv5"
  param {
    lr_mult: 1
    decay_mult: 1
  }
  param {
    lr_mult: 2
    decay_mult: 0
  }
  convolution_param {
    num_output: 256
    pad: 1
    kernel_size: 3
    group: 2
    weight_filler {
      type: "gaussian"
      std: 0.01
    }
    bias_filler {
      type: "constant"
      value: 0.1
    }
  }
}
layer {
  name: "relu5"
  type: "ReLU"
  bottom: "conv5"
  top: "conv5"
}
layer {
  name: "pool5"
  type: "Pooling"
  bottom: "conv5"
  top: "pool5"
  pooling_param {
    pool: MAX
    kernel_size: 3
    stride: 2
  }
}
layer {
  name: "fc6"
  type: "InnerProduct"
  bottom: "pool5"
  top: "fc6"
  param {
    lr_mult: 1
    decay_mult: 1
  }
  param {
    lr_mult: 2
    decay_mult: 0
  }
  inner_product_param {
    num_output: 4096
    weight_filler {
      type: "gaussian"
      std: 0.005
    }
    bias_filler {
      type: "constant"
      value: 0.1
    }
  }
}
layer {
  name: "relu6"
  type: "ReLU"
  bottom: "fc6"
  top: "fc6"
}
layer {
  name: "drop6"
  type: "Dropout"
  bottom: "fc6"
  top: "fc6"
  dropout_param {
    dropout_ratio: 0.5
  }
}
layer {
  name: "fc7"
  type: "InnerProduct"
  bottom: "fc6"
  top: "fc7"
  param {
    lr_mult: 1
    decay_mult: 1
  }
  param {
    lr_mult: 2
    decay_mult: 0
  }
  inner_product_param {
    num_output: 4096
    weight_filler {
      type: "gaussian"
      std: 0.005
    }
    bias_filler {
      type: "constant"
      value: 0.1
    }
  }
}
layer {
  name: "relu7"
  type: "ReLU"
  bottom: "fc7"
  top: "fc7"
}
layer {
  name: "drop7"
  type: "Dropout"
  bottom: "fc7"
  top: "fc7"
  dropout_param {
    dropout_ratio: 0.5
  }
}
layer {
  name: "fc8_finetune"
  type: "InnerProduct"
  bottom: "fc7"
  top: "fc8_finetune"
  param {
    lr_mult: 1000
    decay_mult: 1
  }
  param {
    lr_mult: 1000
    decay_mult: 0
  }
  inner_product_param {
    num_output: 10
    weight_filler {
      type: "gaussian"
      std: 0.01
    }
    bias_filler {
      type: "constant"
      value: 0
    }
  }
}
layer {
  name: "loss"
  type: "SoftmaxWithLoss"
  bottom: "fc8_finetune"
  bottom: "label"
  top: "loss"
}
I1007 03:58:43.892031 26345 layer_factory.hpp:76] Creating layer data
I1007 03:58:43.892904 26345 net.cpp:110] Creating Layer data
I1007 03:58:43.892931 26345 net.cpp:433] data -> data
I1007 03:58:43.892977 26345 net.cpp:433] data -> label
I1007 03:58:43.893002 26345 data_transformer.cpp:25] Loading mean file from: /home/ram21/caffe/caffe/data/ilsvrc12/imagenet_mean.binaryproto
I1007 03:58:43.923928 26375 db_lmdb.cpp:23] Opened lmdb /home/ram21/Fall2015/DeepLearning/HW2/VT-F15-ECE6504-HW2-1.0/2_finetuning-alexnet-wikiart-style/train_lmdb
I1007 03:58:43.935506 26345 data_layer.cpp:45] output data size: 256,3,227,227
I1007 03:58:44.400859 26345 net.cpp:155] Setting up data
I1007 03:58:44.400996 26345 net.cpp:163] Top shape: 256 3 227 227 (39574272)
I1007 03:58:44.401015 26345 net.cpp:163] Top shape: 256 (256)
I1007 03:58:44.401042 26345 layer_factory.hpp:76] Creating layer conv1
I1007 03:58:44.401087 26345 net.cpp:110] Creating Layer conv1
I1007 03:58:44.401108 26345 net.cpp:477] conv1 <- data
I1007 03:58:44.401139 26345 net.cpp:433] conv1 -> conv1
I1007 03:58:44.406119 26345 net.cpp:155] Setting up conv1
I1007 03:58:44.406250 26345 net.cpp:163] Top shape: 256 96 55 55 (74342400)
I1007 03:58:44.406303 26345 layer_factory.hpp:76] Creating layer relu1
I1007 03:58:44.406338 26345 net.cpp:110] Creating Layer relu1
I1007 03:58:44.406352 26345 net.cpp:477] relu1 <- conv1
I1007 03:58:44.406371 26345 net.cpp:419] relu1 -> conv1 (in-place)
I1007 03:58:44.406404 26345 net.cpp:155] Setting up relu1
I1007 03:58:44.406419 26345 net.cpp:163] Top shape: 256 96 55 55 (74342400)
I1007 03:58:44.406433 26345 layer_factory.hpp:76] Creating layer norm1
I1007 03:58:44.406456 26345 net.cpp:110] Creating Layer norm1
I1007 03:58:44.406471 26345 net.cpp:477] norm1 <- conv1
I1007 03:58:44.406488 26345 net.cpp:433] norm1 -> norm1
I1007 03:58:44.406597 26345 net.cpp:155] Setting up norm1
I1007 03:58:44.406620 26345 net.cpp:163] Top shape: 256 96 55 55 (74342400)
I1007 03:58:44.406635 26345 layer_factory.hpp:76] Creating layer pool1
I1007 03:58:44.406657 26345 net.cpp:110] Creating Layer pool1
I1007 03:58:44.406673 26345 net.cpp:477] pool1 <- norm1
I1007 03:58:44.406697 26345 net.cpp:433] pool1 -> pool1
I1007 03:58:44.406796 26345 net.cpp:155] Setting up pool1
I1007 03:58:44.406818 26345 net.cpp:163] Top shape: 256 96 27 27 (17915904)
I1007 03:58:44.406837 26345 layer_factory.hpp:76] Creating layer conv2
I1007 03:58:44.406916 26345 net.cpp:110] Creating Layer conv2
I1007 03:58:44.406934 26345 net.cpp:477] conv2 <- pool1
I1007 03:58:44.406951 26345 net.cpp:433] conv2 -> conv2
I1007 03:58:44.466843 26345 net.cpp:155] Setting up conv2
I1007 03:58:44.466881 26345 net.cpp:163] Top shape: 256 256 27 27 (47775744)
I1007 03:58:44.466900 26345 layer_factory.hpp:76] Creating layer relu2
I1007 03:58:44.466913 26345 net.cpp:110] Creating Layer relu2
I1007 03:58:44.466918 26345 net.cpp:477] relu2 <- conv2
I1007 03:58:44.466925 26345 net.cpp:419] relu2 -> conv2 (in-place)
I1007 03:58:44.466938 26345 net.cpp:155] Setting up relu2
I1007 03:58:44.466943 26345 net.cpp:163] Top shape: 256 256 27 27 (47775744)
I1007 03:58:44.466946 26345 layer_factory.hpp:76] Creating layer norm2
I1007 03:58:44.466959 26345 net.cpp:110] Creating Layer norm2
I1007 03:58:44.466963 26345 net.cpp:477] norm2 <- conv2
I1007 03:58:44.466969 26345 net.cpp:433] norm2 -> norm2
I1007 03:58:44.467018 26345 net.cpp:155] Setting up norm2
I1007 03:58:44.467025 26345 net.cpp:163] Top shape: 256 256 27 27 (47775744)
I1007 03:58:44.467027 26345 layer_factory.hpp:76] Creating layer pool2
I1007 03:58:44.467037 26345 net.cpp:110] Creating Layer pool2
I1007 03:58:44.467041 26345 net.cpp:477] pool2 <- norm2
I1007 03:58:44.467046 26345 net.cpp:433] pool2 -> pool2
I1007 03:58:44.467078 26345 net.cpp:155] Setting up pool2
I1007 03:58:44.467083 26345 net.cpp:163] Top shape: 256 256 13 13 (11075584)
I1007 03:58:44.467087 26345 layer_factory.hpp:76] Creating layer conv3
I1007 03:58:44.467103 26345 net.cpp:110] Creating Layer conv3
I1007 03:58:44.467106 26345 net.cpp:477] conv3 <- pool2
I1007 03:58:44.467113 26345 net.cpp:433] conv3 -> conv3
I1007 03:58:44.523874 26345 net.cpp:155] Setting up conv3
I1007 03:58:44.524009 26345 net.cpp:163] Top shape: 256 384 13 13 (16613376)
I1007 03:58:44.524047 26345 layer_factory.hpp:76] Creating layer relu3
I1007 03:58:44.524078 26345 net.cpp:110] Creating Layer relu3
I1007 03:58:44.524093 26345 net.cpp:477] relu3 <- conv3
I1007 03:58:44.524122 26345 net.cpp:419] relu3 -> conv3 (in-place)
I1007 03:58:44.524148 26345 net.cpp:155] Setting up relu3
I1007 03:58:44.524160 26345 net.cpp:163] Top shape: 256 384 13 13 (16613376)
I1007 03:58:44.524171 26345 layer_factory.hpp:76] Creating layer conv4
I1007 03:58:44.524194 26345 net.cpp:110] Creating Layer conv4
I1007 03:58:44.524204 26345 net.cpp:477] conv4 <- conv3
I1007 03:58:44.524219 26345 net.cpp:433] conv4 -> conv4
I1007 03:58:44.561825 26345 net.cpp:155] Setting up conv4
I1007 03:58:44.561964 26345 net.cpp:163] Top shape: 256 384 13 13 (16613376)
I1007 03:58:44.561990 26345 layer_factory.hpp:76] Creating layer relu4
I1007 03:58:44.562019 26345 net.cpp:110] Creating Layer relu4
I1007 03:58:44.562033 26345 net.cpp:477] relu4 <- conv4
I1007 03:58:44.562050 26345 net.cpp:419] relu4 -> conv4 (in-place)
I1007 03:58:44.562075 26345 net.cpp:155] Setting up relu4
I1007 03:58:44.562088 26345 net.cpp:163] Top shape: 256 384 13 13 (16613376)
I1007 03:58:44.562109 26345 layer_factory.hpp:76] Creating layer conv5
I1007 03:58:44.562136 26345 net.cpp:110] Creating Layer conv5
I1007 03:58:44.562149 26345 net.cpp:477] conv5 <- conv4
I1007 03:58:44.562162 26345 net.cpp:433] conv5 -> conv5
I1007 03:58:44.586545 26345 net.cpp:155] Setting up conv5
I1007 03:58:44.586684 26345 net.cpp:163] Top shape: 256 256 13 13 (11075584)
I1007 03:58:44.586727 26345 layer_factory.hpp:76] Creating layer relu5
I1007 03:58:44.586760 26345 net.cpp:110] Creating Layer relu5
I1007 03:58:44.586776 26345 net.cpp:477] relu5 <- conv5
I1007 03:58:44.586797 26345 net.cpp:419] relu5 -> conv5 (in-place)
I1007 03:58:44.586824 26345 net.cpp:155] Setting up relu5
I1007 03:58:44.586838 26345 net.cpp:163] Top shape: 256 256 13 13 (11075584)
I1007 03:58:44.586849 26345 layer_factory.hpp:76] Creating layer pool5
I1007 03:58:44.586880 26345 net.cpp:110] Creating Layer pool5
I1007 03:58:44.586894 26345 net.cpp:477] pool5 <- conv5
I1007 03:58:44.586910 26345 net.cpp:433] pool5 -> pool5
I1007 03:58:44.587038 26345 net.cpp:155] Setting up pool5
I1007 03:58:44.587366 26345 net.cpp:163] Top shape: 256 256 6 6 (2359296)
I1007 03:58:44.587381 26345 layer_factory.hpp:76] Creating layer fc6
I1007 03:58:44.587427 26345 net.cpp:110] Creating Layer fc6
I1007 03:58:44.587443 26345 net.cpp:477] fc6 <- pool5
I1007 03:58:44.587468 26345 net.cpp:433] fc6 -> fc6
I1007 03:58:47.804859 26345 net.cpp:155] Setting up fc6
I1007 03:58:47.804970 26345 net.cpp:163] Top shape: 256 4096 (1048576)
I1007 03:58:47.804999 26345 layer_factory.hpp:76] Creating layer relu6
I1007 03:58:47.805027 26345 net.cpp:110] Creating Layer relu6
I1007 03:58:47.805044 26345 net.cpp:477] relu6 <- fc6
I1007 03:58:47.805064 26345 net.cpp:419] relu6 -> fc6 (in-place)
I1007 03:58:47.805089 26345 net.cpp:155] Setting up relu6
I1007 03:58:47.805104 26345 net.cpp:163] Top shape: 256 4096 (1048576)
I1007 03:58:47.805116 26345 layer_factory.hpp:76] Creating layer drop6
I1007 03:58:47.805132 26345 net.cpp:110] Creating Layer drop6
I1007 03:58:47.805145 26345 net.cpp:477] drop6 <- fc6
I1007 03:58:47.805161 26345 net.cpp:419] drop6 -> fc6 (in-place)
I1007 03:58:47.805210 26345 net.cpp:155] Setting up drop6
I1007 03:58:47.805227 26345 net.cpp:163] Top shape: 256 4096 (1048576)
I1007 03:58:47.805240 26345 layer_factory.hpp:76] Creating layer fc7
I1007 03:58:47.805260 26345 net.cpp:110] Creating Layer fc7
I1007 03:58:47.805272 26345 net.cpp:477] fc7 <- fc6
I1007 03:58:47.805317 26345 net.cpp:433] fc7 -> fc7
I1007 03:58:49.117094 26345 net.cpp:155] Setting up fc7
I1007 03:58:49.117239 26345 net.cpp:163] Top shape: 256 4096 (1048576)
I1007 03:58:49.117348 26345 layer_factory.hpp:76] Creating layer relu7
I1007 03:58:49.117440 26345 net.cpp:110] Creating Layer relu7
I1007 03:58:49.117497 26345 net.cpp:477] relu7 <- fc7
I1007 03:58:49.117538 26345 net.cpp:419] relu7 -> fc7 (in-place)
I1007 03:58:49.117589 26345 net.cpp:155] Setting up relu7
I1007 03:58:49.117614 26345 net.cpp:163] Top shape: 256 4096 (1048576)
I1007 03:58:49.117630 26345 layer_factory.hpp:76] Creating layer drop7
I1007 03:58:49.117660 26345 net.cpp:110] Creating Layer drop7
I1007 03:58:49.117676 26345 net.cpp:477] drop7 <- fc7
I1007 03:58:49.117702 26345 net.cpp:419] drop7 -> fc7 (in-place)
I1007 03:58:49.117761 26345 net.cpp:155] Setting up drop7
I1007 03:58:49.117779 26345 net.cpp:163] Top shape: 256 4096 (1048576)
I1007 03:58:49.117792 26345 layer_factory.hpp:76] Creating layer fc8_finetune
I1007 03:58:49.117815 26345 net.cpp:110] Creating Layer fc8_finetune
I1007 03:58:49.117827 26345 net.cpp:477] fc8_finetune <- fc7
I1007 03:58:49.117846 26345 net.cpp:433] fc8_finetune -> fc8_finetune
I1007 03:58:49.120115 26345 net.cpp:155] Setting up fc8_finetune
I1007 03:58:49.120180 26345 net.cpp:163] Top shape: 256 10 (2560)
I1007 03:58:49.120208 26345 layer_factory.hpp:76] Creating layer loss
I1007 03:58:49.120229 26345 net.cpp:110] Creating Layer loss
I1007 03:58:49.120254 26345 net.cpp:477] loss <- fc8_finetune
I1007 03:58:49.120273 26345 net.cpp:477] loss <- label
I1007 03:58:49.120306 26345 net.cpp:433] loss -> loss
I1007 03:58:49.120338 26345 layer_factory.hpp:76] Creating layer loss
I1007 03:58:49.120472 26345 net.cpp:155] Setting up loss
…
I1007 03:58:49.126296 26345 net.cpp:339] The NetState phase (1) differed from the phase (0) specified by a rule in layer data
I1007 03:58:49.126713 26345 net.cpp:50] Initializing net from parameters: 
name: "AlexNet"
state {
  phase: TEST
}
layer {
  name: "data"
  type: "Data"
  top: "data"
  top: "label"
  include {
    phase: TEST
  }
  transform_param {
    mirror: false
    crop_size: 227
    mean_file: "/home/ram21/caffe/caffe/data/ilsvrc12/imagenet_mean.binaryproto"
  }
  data_param {
    source: "/home/ram21/Fall2015/DeepLearning/HW2/VT-F15-ECE6504-HW2-1.0/2_finetuning-alexnet-wikiart-style/test_lmdb"
    batch_size: 50
    backend: LMDB
  }
}
layer {
  name: "conv1"
  type: "Convolution"
  bottom: "data"
  top: "conv1"
  param {
    lr_mult: 1
    decay_mult: 1
  }
  param {
    lr_mult: 2
    decay_mult: 0
  }
  convolution_param {
    num_output: 96
    kernel_size: 11
    stride: 4
    weight_filler {
      type: "gaussian"
      std: 0.01
    }
    bias_filler {
      type: "constant"
      value: 0
    }
  }
}
layer {
  name: "relu1"
  type: "ReLU"
  bottom: "conv1"
  top: "conv1"
}
layer {
  name: "norm1"
  type: "LRN"
  bottom: "conv1"
  top: "norm1"
  lrn_param {
    local_size: 5
    alpha: 0.0001
    beta: 0.75
  }
}
layer {
  name: "pool1"
  type: "Pooling"
  bottom: "norm1"
  top: "pool1"
  pooling_param {
    pool: MAX
    kernel_size: 3
    stride: 2
  }
}
layer {
  name: "conv2"
  type: "Convolution"
  bottom: "pool1"
  top: "conv2"
  param {
    lr_mult: 1
    decay_mult: 1
  }
  param {
    lr_mult: 2
    decay_mult: 0
  }
  convolution_param {
    num_output: 256
    pad: 2
    kernel_size: 5
    group: 2
    weight_filler {
      type: "gaussian"
      std: 0.01
    }
    bias_filler {
      type: "constant"
      value: 0.1
    }
  }
}
layer {
  name: "relu2"
  type: "ReLU"
  bottom: "conv2"
  top: "conv2"
}
layer {
  name: "norm2"
  type: "LRN"
  bottom: "conv2"
  top: "norm2"
  lrn_param {
    local_size: 5
    alpha: 0.0001
    beta: 0.75
  }
}
layer {
  name: "pool2"
  type: "Pooling"
  bottom: "norm2"
  top: "pool2"
  pooling_param {
    pool: MAX
    kernel_size: 3
    stride: 2
  }
}
layer {
  name: "conv3"
  type: "Convolution"
  bottom: "pool2"
  top: "conv3"
  param {
    lr_mult: 1
    decay_mult: 1
  }
  param {
    lr_mult: 2
    decay_mult: 0
  }
  convolution_param {
    num_output: 384
    pad: 1
    kernel_size: 3
    weight_filler {
      type: "gaussian"
      std: 0.01
    }
    bias_filler {
      type: "constant"
      value: 0
    }
  }
}
layer {
  name: "relu3"
  type: "ReLU"
  bottom: "conv3"
  top: "conv3"
}
layer {
  name: "conv4"
  type: "Convolution"
  bottom: "conv3"
  top: "conv4"
  param {
    lr_mult: 1
    decay_mult: 1
  }
  param {
    lr_mult: 2
    decay_mult: 0
  }
  convolution_param {
    num_output: 384
    pad: 1
    kernel_size: 3
    group: 2
    weight_filler {
      type: "gaussian"
      std: 0.01
    }
    bias_filler {
      type: "constant"
      value: 0.1
    }
  }
}
layer {
  name: "relu4"
  type: "ReLU"
  bottom: "conv4"
  top: "conv4"
}
layer {
  name: "conv5"
  type: "Convolution"
  bottom: "conv4"
  top: "conv5"
  param {
    lr_mult: 1
    decay_mult: 1
  }
  param {
    lr_mult: 2
    decay_mult: 0
  }
  convolution_param {
    num_output: 256
    pad: 1
    kernel_size: 3
    group: 2
    weight_filler {
      type: "gaussian"
      std: 0.01
    }
    bias_filler {
      type: "constant"
      value: 0.1
    }
  }
}
layer {
  name: "relu5"
  type: "ReLU"
  bottom: "conv5"
  top: "conv5"
}
layer {
  name: "pool5"
  type: "Pooling"
  bottom: "conv5"
  top: "pool5"
  pooling_param {
    pool: MAX
    kernel_size: 3
    stride: 2
  }
}
layer {
  name: "fc6"
  type: "InnerProduct"
  bottom: "pool5"
  top: "fc6"
  param {
    lr_mult: 1
    decay_mult: 1
  }
  param {
    lr_mult: 2
    decay_mult: 0
  }
  inner_product_param {
    num_output: 4096
    weight_filler {
      type: "gaussian"
      std: 0.005
    }
    bias_filler {
      type: "constant"
      value: 0.1
    }
  }
}
layer {
  name: "relu6"
  type: "ReLU"
  bottom: "fc6"
  top: "fc6"
}
layer {
  name: "drop6"
  type: "Dropout"
  bottom: "fc6"
  top: "fc6"
  dropout_param {
    dropout_ratio: 0.5
  }
}
layer {
  name: "fc7"
  type: "InnerProduct"
  bottom: "fc6"
  top: "fc7"
  param {
    lr_mult: 1
    decay_mult: 1
  }
  param {
    lr_mult: 2
    decay_mult: 0
  }
  inner_product_param {
    num_output: 4096
    weight_filler {
      type: "gaussian"
      std: 0.005
    }
    bias_filler {
      type: "constant"
      value: 0.1
    }
  }
}
layer {
  name: "relu7"
  type: "ReLU"
  bottom: "fc7"
  top: "fc7"
}
layer {
  name: "drop7"
  type: "Dropout"
  bottom: "fc7"
  top: "fc7"
  dropout_param {
    dropout_ratio: 0.5
  }
}
layer {
  name: "fc8_finetune"
  type: "InnerProduct"
  bottom: "fc7"
  top: "fc8_finetune"
  param {
    lr_mult: 1000
    decay_mult: 1
  }
  param {
    lr_mult: 1000
    decay_mult: 0
  }
  inner_product_param {
    num_output: 10
    weight_filler {
      type: "gaussian"
      std: 0.01
    }
    bias_filler {
      type: "constant"
      value: 0
    }
  }
}
layer {
  name: "accuracy"
  type: "Accuracy"
  bottom: "fc8_finetune"
  bottom: "label"
  top: "accuracy"
  include {
    phase: TEST
  }
}
layer {
  name: "loss"
  type: "SoftmaxWithLoss"
  bottom: "fc8_finetune"
  bottom: "label"
  top: "loss"
}
I1007 03:58:49.127418 26345 layer_factory.hpp:76] Creating layer data
I1007 03:58:49.127595 26345 net.cpp:110] Creating Layer data
I1007 03:58:49.127621 26345 net.cpp:433] data -> data
I1007 03:58:49.127660 26345 net.cpp:433] data -> label
I1007 03:58:49.127692 26345 data_transformer.cpp:25] Loading mean file from: /home/ram21/caffe/caffe/data/ilsvrc12/imagenet_mean.binaryproto
I1007 03:58:49.146476 26395 db_lmdb.cpp:23] Opened lmdb /home/ram21/Fall2015/DeepLearning/HW2/VT-F15-ECE6504-HW2-1.0/2_finetuning-alexnet-wikiart-style/test_lmdb
I1007 03:58:49.151541 26345 data_layer.cpp:45] output data size: 50,3,227,227
I1007 03:58:49.316643 26345 net.cpp:155] Setting up data
I1007 03:58:49.316721 26345 net.cpp:163] Top shape: 50 3 227 227 (7729350)
I1007 03:58:49.316733 26345 net.cpp:163] Top shape: 50 (50)
I1007 03:58:49.316748 26345 layer_factory.hpp:76] Creating layer label_data_1_split
I1007 03:58:49.316769 26345 net.cpp:110] Creating Layer label_data_1_split
I1007 03:58:49.316779 26345 net.cpp:477] label_data_1_split <- label
I1007 03:58:49.316794 26345 net.cpp:433] label_data_1_split -> label_data_1_split_0
I1007 03:58:49.316815 26345 net.cpp:433] label_data_1_split -> label_data_1_split_1
I1007 03:58:49.316885 26345 net.cpp:155] Setting up label_data_1_split
I1007 03:58:49.316898 26345 net.cpp:163] Top shape: 50 (50)
I1007 03:58:49.316908 26345 net.cpp:163] Top shape: 50 (50)
I1007 03:58:49.316917 26345 layer_factory.hpp:76] Creating layer conv1
I1007 03:58:49.316970 26345 net.cpp:110] Creating Layer conv1
I1007 03:58:49.316980 26345 net.cpp:477] conv1 <- data
I1007 03:58:49.316992 26345 net.cpp:433] conv1 -> conv1
I1007 03:58:49.318835 26345 net.cpp:155] Setting up conv1
I1007 03:58:49.318886 26345 net.cpp:163] Top shape: 50 96 55 55 (14520000)
I1007 03:58:49.318908 26345 layer_factory.hpp:76] Creating layer relu1
I1007 03:58:49.318924 26345 net.cpp:110] Creating Layer relu1
I1007 03:58:49.318934 26345 net.cpp:477] relu1 <- conv1
I1007 03:58:49.318945 26345 net.cpp:419] relu1 -> conv1 (in-place)
I1007 03:58:49.318969 26345 net.cpp:155] Setting up relu1
I1007 03:58:49.318980 26345 net.cpp:163] Top shape: 50 96 55 55 (14520000)
I1007 03:58:49.318989 26345 layer_factory.hpp:76] Creating layer norm1
I1007 03:58:49.319006 26345 net.cpp:110] Creating Layer norm1
I1007 03:58:49.319015 26345 net.cpp:477] norm1 <- conv1
I1007 03:58:49.319025 26345 net.cpp:433] norm1 -> norm1
I1007 03:58:49.319072 26345 net.cpp:155] Setting up norm1
I1007 03:58:49.319083 26345 net.cpp:163] Top shape: 50 96 55 55 (14520000)
I1007 03:58:49.319092 26345 layer_factory.hpp:76] Creating layer pool1
I1007 03:58:49.319104 26345 net.cpp:110] Creating Layer pool1
I1007 03:58:49.319113 26345 net.cpp:477] pool1 <- norm1
I1007 03:58:49.319123 26345 net.cpp:433] pool1 -> pool1
I1007 03:58:49.319159 26345 net.cpp:155] Setting up pool1
I1007 03:58:49.319171 26345 net.cpp:163] Top shape: 50 96 27 27 (3499200)
I1007 03:58:49.319180 26345 layer_factory.hpp:76] Creating layer conv2
I1007 03:58:49.319195 26345 net.cpp:110] Creating Layer conv2
I1007 03:58:49.319203 26345 net.cpp:477] conv2 <- pool1
I1007 03:58:49.319214 26345 net.cpp:433] conv2 -> conv2
I1007 03:58:49.334662 26345 net.cpp:155] Setting up conv2
I1007 03:58:49.345322 26345 net.cpp:163] Top shape: 50 256 27 27 (9331200)
I1007 03:58:49.345377 26345 layer_factory.hpp:76] Creating layer relu2
I1007 03:58:49.345401 26345 net.cpp:110] Creating Layer relu2
I1007 03:58:49.345410 26345 net.cpp:477] relu2 <- conv2
I1007 03:58:49.345422 26345 net.cpp:419] relu2 -> conv2 (in-place)
I1007 03:58:49.345438 26345 net.cpp:155] Setting up relu2
I1007 03:58:49.345449 26345 net.cpp:163] Top shape: 50 256 27 27 (9331200)
I1007 03:58:49.345458 26345 layer_factory.hpp:76] Creating layer norm2
I1007 03:58:49.345473 26345 net.cpp:110] Creating Layer norm2
I1007 03:58:49.345480 26345 net.cpp:477] norm2 <- conv2
I1007 03:58:49.345491 26345 net.cpp:433] norm2 -> norm2
I1007 03:58:49.346308 26345 net.cpp:155] Setting up norm2
I1007 03:58:49.346338 26345 net.cpp:163] Top shape: 50 256 27 27 (9331200)
I1007 03:58:49.346349 26345 layer_factory.hpp:76] Creating layer pool2
I1007 03:58:49.346364 26345 net.cpp:110] Creating Layer pool2
I1007 03:58:49.346374 26345 net.cpp:477] pool2 <- norm2
I1007 03:58:49.346390 26345 net.cpp:433] pool2 -> pool2
I1007 03:58:49.346441 26345 net.cpp:155] Setting up pool2
I1007 03:58:49.346457 26345 net.cpp:163] Top shape: 50 256 13 13 (2163200)
I1007 03:58:49.346469 26345 layer_factory.hpp:76] Creating layer conv3
I1007 03:58:49.346492 26345 net.cpp:110] Creating Layer conv3
I1007 03:58:49.346504 26345 net.cpp:477] conv3 <- pool2
I1007 03:58:49.346520 26345 net.cpp:433] conv3 -> conv3
I1007 03:58:49.432917 26345 net.cpp:155] Setting up conv3
I1007 03:58:49.443442 26345 net.cpp:163] Top shape: 50 384 13 13 (3244800)
I1007 03:58:49.443517 26345 layer_factory.hpp:76] Creating layer relu3
I1007 03:58:49.443560 26345 net.cpp:110] Creating Layer relu3
I1007 03:58:49.443583 26345 net.cpp:477] relu3 <- conv3
I1007 03:58:49.443603 26345 net.cpp:419] relu3 -> conv3 (in-place)
I1007 03:58:49.443629 26345 net.cpp:155] Setting up relu3
I1007 03:58:49.443645 26345 net.cpp:163] Top shape: 50 384 13 13 (3244800)
I1007 03:58:49.443655 26345 layer_factory.hpp:76] Creating layer conv4
I1007 03:58:49.443681 26345 net.cpp:110] Creating Layer conv4
I1007 03:58:49.443691 26345 net.cpp:477] conv4 <- conv3
I1007 03:58:49.443707 26345 net.cpp:433] conv4 -> conv4
I1007 03:58:49.519040 26345 net.cpp:155] Setting up conv4
I1007 03:58:49.519103 26345 net.cpp:163] Top shape: 50 384 13 13 (3244800)
I1007 03:58:49.519160 26345 layer_factory.hpp:76] Creating layer relu4
I1007 03:58:49.519184 26345 net.cpp:110] Creating Layer relu4
I1007 03:58:49.519201 26345 net.cpp:477] relu4 <- conv4
I1007 03:58:49.519222 26345 net.cpp:419] relu4 -> conv4 (in-place)
I1007 03:58:49.519243 26345 net.cpp:155] Setting up relu4
I1007 03:58:49.519260 26345 net.cpp:163] Top shape: 50 384 13 13 (3244800)
I1007 03:58:49.519273 26345 layer_factory.hpp:76] Creating layer conv5
I1007 03:58:49.519305 26345 net.cpp:110] Creating Layer conv5
I1007 03:58:49.519320 26345 net.cpp:477] conv5 <- conv4
I1007 03:58:49.519335 26345 net.cpp:433] conv5 -> conv5
I1007 03:58:49.555217 26345 net.cpp:155] Setting up conv5
I1007 03:58:49.564004 26345 net.cpp:163] Top shape: 50 256 13 13 (2163200)
I1007 03:58:49.564079 26345 layer_factory.hpp:76] Creating layer relu5
I1007 03:58:49.564106 26345 net.cpp:110] Creating Layer relu5
I1007 03:58:49.564122 26345 net.cpp:477] relu5 <- conv5
I1007 03:58:49.564139 26345 net.cpp:419] relu5 -> conv5 (in-place)
I1007 03:58:49.564318 26345 net.cpp:155] Setting up relu5
I1007 03:58:49.564337 26345 net.cpp:163] Top shape: 50 256 13 13 (2163200)
I1007 03:58:49.564349 26345 layer_factory.hpp:76] Creating layer pool5
I1007 03:58:49.564379 26345 net.cpp:110] Creating Layer pool5
I1007 03:58:49.564393 26345 net.cpp:477] pool5 <- conv5
I1007 03:58:49.564407 26345 net.cpp:433] pool5 -> pool5
I1007 03:58:49.564532 26345 net.cpp:155] Setting up pool5
I1007 03:58:49.565062 26345 net.cpp:163] Top shape: 50 256 6 6 (460800)
I1007 03:58:49.565079 26345 layer_factory.hpp:76] Creating layer fc6
I1007 03:58:49.565099 26345 net.cpp:110] Creating Layer fc6
I1007 03:58:49.565111 26345 net.cpp:477] fc6 <- pool5
I1007 03:58:49.565124 26345 net.cpp:433] fc6 -> fc6
I1007 03:58:52.239843 26345 net.cpp:155] Setting up fc6
I1007 03:58:52.239912 26345 net.cpp:163] Top shape: 50 4096 (204800)
I1007 03:58:52.239938 26345 layer_factory.hpp:76] Creating layer relu6
I1007 03:58:52.239961 26345 net.cpp:110] Creating Layer relu6
I1007 03:58:52.239976 26345 net.cpp:477] relu6 <- fc6
I1007 03:58:52.239995 26345 net.cpp:419] relu6 -> fc6 (in-place)
I1007 03:58:52.240015 26345 net.cpp:155] Setting up relu6
I1007 03:58:52.240027 26345 net.cpp:163] Top shape: 50 4096 (204800)
I1007 03:58:52.240041 26345 layer_factory.hpp:76] Creating layer drop6
I1007 03:58:52.240054 26345 net.cpp:110] Creating Layer drop6
I1007 03:58:52.240064 26345 net.cpp:477] drop6 <- fc6
I1007 03:58:52.240075 26345 net.cpp:419] drop6 -> fc6 (in-place)
I1007 03:58:52.240123 26345 net.cpp:155] Setting up drop6
I1007 03:58:52.240137 26345 net.cpp:163] Top shape: 50 4096 (204800)
I1007 03:58:52.240147 26345 layer_factory.hpp:76] Creating layer fc7
I1007 03:58:52.240161 26345 net.cpp:110] Creating Layer fc7
I1007 03:58:52.240171 26345 net.cpp:477] fc7 <- fc6
I1007 03:58:52.240183 26345 net.cpp:433] fc7 -> fc7
I1007 03:58:53.418097 26345 net.cpp:155] Setting up fc7
I1007 03:58:53.418143 26345 net.cpp:163] Top shape: 50 4096 (204800)
I1007 03:58:53.418155 26345 layer_factory.hpp:76] Creating layer relu7
I1007 03:58:53.418167 26345 net.cpp:110] Creating Layer relu7
I1007 03:58:53.418177 26345 net.cpp:477] relu7 <- fc7
I1007 03:58:53.418191 26345 net.cpp:419] relu7 -> fc7 (in-place)
I1007 03:58:53.418208 26345 net.cpp:155] Setting up relu7
I1007 03:58:53.418217 26345 net.cpp:163] Top shape: 50 4096 (204800)
I1007 03:58:53.418223 26345 layer_factory.hpp:76] Creating layer drop7
I1007 03:58:53.418232 26345 net.cpp:110] Creating Layer drop7
I1007 03:58:53.418236 26345 net.cpp:477] drop7 <- fc7
I1007 03:58:53.418244 26345 net.cpp:419] drop7 -> fc7 (in-place)
I1007 03:58:53.418277 26345 net.cpp:155] Setting up drop7
I1007 03:58:53.418285 26345 net.cpp:163] Top shape: 50 4096 (204800)
I1007 03:58:53.418295 26345 layer_factory.hpp:76] Creating layer fc8_finetune
I1007 03:58:53.418308 26345 net.cpp:110] Creating Layer fc8_finetune
I1007 03:58:53.418313 26345 net.cpp:477] fc8_finetune <- fc7
I1007 03:58:53.418319 26345 net.cpp:433] fc8_finetune -> fc8_finetune
I1007 03:58:53.420503 26345 net.cpp:155] Setting up fc8_finetune
I1007 03:58:53.420563 26345 net.cpp:163] Top shape: 50 10 (500)
I1007 03:58:53.420574 26345 layer_factory.hpp:76] Creating layer fc8_finetune_fc8_finetune_0_split
I1007 03:58:53.420585 26345 net.cpp:110] Creating Layer fc8_finetune_fc8_finetune_0_split
I1007 03:58:53.420591 26345 net.cpp:477] fc8_finetune_fc8_finetune_0_split <- fc8_finetune
I1007 03:58:53.420600 26345 net.cpp:433] fc8_finetune_fc8_finetune_0_split -> fc8_finetune_fc8_finetune_0_split_0
I1007 03:58:53.420613 26345 net.cpp:433] fc8_finetune_fc8_finetune_0_split -> fc8_finetune_fc8_finetune_0_split_1
I1007 03:58:53.420656 26345 net.cpp:155] Setting up fc8_finetune_fc8_finetune_0_split
I1007 03:58:53.420663 26345 net.cpp:163] Top shape: 50 10 (500)
I1007 03:58:53.420670 26345 net.cpp:163] Top shape: 50 10 (500)
I1007 03:58:53.420675 26345 layer_factory.hpp:76] Creating layer accuracy
I1007 03:58:53.420683 26345 net.cpp:110] Creating Layer accuracy
I1007 03:58:53.420688 26345 net.cpp:477] accuracy <- fc8_finetune_fc8_finetune_0_split_0
I1007 03:58:53.420694 26345 net.cpp:477] accuracy <- label_data_1_split_0
I1007 03:58:53.420702 26345 net.cpp:433] accuracy -> accuracy
I1007 03:58:53.420717 26345 net.cpp:155] Setting up accuracy
…
